models/blog_dqn.pth (torch, 742433 bytes, 5 tensors)

q_net.0.weight f4 [256, 592]
00000000: f1b5 993b dbed 00bc 793c 6a3c 6c74 1fbd
00000010: 9050 443c 7e82 d2bc ca20 df3c 7b01 c03c
00000020: 2b74 87bb f759 b43c cadd e5bb 9bdc 183d
00000030: 5b7d 38bc c60f a43b 5eca 0b3a 5c0e 8d3c
00000040: 6a8f afbb 41e6 21bd f2a4 ee3b 949e 403d
00000050: 1758 55bc b791 d6bb d833 03bd dc96 31bd
00000060: 861f 393c 388e e23c 80e1 b5bc 7af5 053c
00000070: 1c65 24bd f8d7 503d 34eb 98bb e162 793b
00000080: 6c13 3abb 2723 733a e96e 583c ec2b fabc
00000090: 3149 273c 2bf7 12bd 7848 863c 98a3 4e3d
000000a0: c2fa e63c 114b 90bc 6679 c33c 95c8 a4ba
000000b0: 803d 843b 7c78 9fb9 bc6e 0f3d 5f5c 2cbc
000000c0: 2816 a03c c60c 47bc 4f3a 2bbc 538a 1fbc
000000d0: fe3f 4cbc 6052 6abd d296 833c 2def f93b
000000e0: f6a2 9e3a 857c 923c 4b16 2c3d 0726 623d
000000f0: 3691 68bc a3a6 883b d612 0e3d 0d73 173c
00000100: 2204 203d 94ce 0c3d 6e63 48bc 7f14 cb3c
00000110: 8092 853c fe87 1fbd 4c90 003d 57a0 babc
00000120: 2695 8e3c 0d03 d5bc 7842 c23c d1b4 19bd
00000130: 6130 1fbd 1552 bbbc 5d98 c23b e15f bbbc
00000140: b4dc 4ebb 0389 103d efa2 2bbc 415f 00bd
00000150: 13b5 07bd 05de 7f3c 9deb a4bc 96b2 0f3c
00000160: 29e5 3abc 3d81 bbbc a773 023d ab96 7a3c
00000170: bf64 4e3b eead 0c3c f546 abbc cc6d 063c
00000180: 0077 50bb d2ae 053d b7f9 963c 6752 c23c
00000190: 9ecb 1fbd b278 0bbc c951 09bc e245 eb3b
000001a0: f09d d4bc 7063 02ba 9360 64bc 7442 e7bb
000001b0: 74f7 053d e17b bb3c 6188 c3bc 4e85 2cb9
000001c0: 7295 143c c820 453c bf23 f2bb 5618 0dbb
000001d0: 395f 17bd ded0 813b c49a 053b b04a 07bd
000001e0: 465a 0bbc 97ef f1bb 90fc 363c 26d4 743c
000001f0: f62e 2ebc b369 5cbb 654c d63c 04d3 88bc
00000200: dbfe 5f3c d976 663b 5943 2c3d 31b6 08bc
00000210: 419e af3a c2cd 723d c436 ac3c 2bba 8a3c
00000220: b856 19bd afbe 0f3d 2c29 2bbc ade4 a2bc
00000230: 1c32 ab3b 7004 113a 106b 413d 7070 cbbb
00000240: 1732 15bd a003 2b3d ea49 71bc f8a1 babc
00000250: 6cd4 9c3b e1a1 e13c 3636 a7bb d925 dd3c
00000260: 558b d93c dd73 6d3c 5a99 bf3c 8502 9b3c
00000270: cb82 2fbc ead7 333d 1b79 08bd 0b9c 5ebc
00000280: f6ec 203c e44f 04bd 315a f93c 630e f93c
00000290: 2d2a d9bc df0a 443c e4fd 08bd e51f 83bc
000002a0: c115 bd3b 8d60 0dbd ed03 3abc cfb0 d93c
000002b0: 610e e63c 9165 9c3c e632 3ebd d254 c23c
000002c0: f27f 6cbc 8e99 bb3b ea83 2ebc 1dba 6d3c
000002d0: 9f3b 443c 5162 ee3b d362 063d 8da7 a3bc
000002e0: 59ea 233c ea2b 8bbc 7f87 0c3d a901 f93c
000002f0: 903a 85bc de5f 3ebb 49c5 133c 93b5 8c3c
00000300: 13f6 a73b cfe1 c33a fb32 813c b09f 383c
00000310: 121e 4abc d68f ffbb c859 90bc de99 2b3b
00000320: 162d f5bc d8b8 0e3d 1010 00bd 995b 0b3d
00000330: 7083 58bc 980a 323c 7cf8 a93c 6332 a3bc
00000340: 85aa cabb 0422 e83c abec 2ebd 2be2 2cbd
00000350: cb33 0a3d 860d 443d f4d2 b3bb 8673 983c
00000360: 7029 7c3c 36ab 0c3d 83fb 723a 7015 0e3c
00000370: 7c5e 403d fb91 a43c 6f6d 68bd 771c 0f3d
00000380: a3a9 3dbd 13d6 24bd 5c66 c43b d1b3 de3c
00000390: 0ee8 b3bb aed3 23bb 6a23 233d 4a79 f53a
000003a0: 632b c8bc 6691 b6bc 825d 773c 8eb6 763c
000003b0: 32c1 dbbb 1bab d5bc d79f 9e3c e1ce 2cba
000003c0: 9bd9 f4bc 4d2b c93c 3051 a73b 5ff6 1e3d
000003d0: dff0 7bbc 847d 8dbc 8409 ebbc dce5 51bd
000003e0: 3ac8 85ba 3fa3 22bd 3632 c7bb 5f5c 91bc
000003f0: de6a a93c 6afd 03bd 8a2d 163d 4c0f 143b
0.0046908786 -0.007869209 0.014296644 -0.038929388 0.011982098 -0.02569699 0.027237315 0.023438206
-0.0041337213 0.022015555 -0.0070149647 0.03731976 -0.011260356 0.005006763 0.0005332584 0.017218761
-0.0053576725 -0.039526228 0.0072828466 0.047026232 -0.013021491 -0.0065481323 -0.032031864 -0.04335676
0.01129902 0.027655706 -0.022202253 0.008176202 -0.040135488 0.050987214 -0.0046667103 0.0038053321
-0.0028392924 0.00092749525 0.013210037 -0.030538522 0.010210321 -0.03588025 0.016391978 0.050448984
0.028195743 -0.01761392 0.023861598 -0.0012571985 0.0040356517 -0.0003041661 0.035017714 -0.01052007
0.019541815 -0.0121490415 -0.010450914 -0.009737569 -0.012466429 -0.057207465 0.016063128 0.007627389
0.001210301 0.017881641 0.042013448 0.055212047 -0.014194777 0.0041702553 0.034685932 0.009243739
0.03906644 0.034376696 -0.012230737 0.024790047 0.016305208 -0.03894805 0.031387612 -0.022781534
0.017405104 -0.026002431 0.023713335 -0.037525956 -0.038864497 -0.022866288 0.0059385733 -0.022872867
-0.0031564655 0.035286915 -0.010475858 -0.03134084 -0.03313167 0.015616898 -0.02013188 0.008770606
-0.011407175 -0.022888774 0.031848576 0.015294711 0.0031493155 0.00858639 -0.020907858 0.008204889
-0.003180921 0.032637425 0.01842962 0.023720933 -0.039012544 -0.008512663 -0.0083813155 0.0071799615
-0.025954217 -0.0004973924 -0.013939041 -0.0070574824 0.032706693 0.022886219 -0.023868741 -0.00016452858
0.009068834 0.012031741 -0.007389515 -0.0021529398 -0.036956046 0.0039616665 0.0020386437 -0.033030212
-0.00850541 -0.0073832977 0.011168614 0.014943158 -0.010631314 -0.0033632338 0.026159475 -0.016702183
0.013671602 0.0035166054 0.042056415 -0.008344219 0.0013398604 0.059278257 0.021022208 0.016934475
-0.037436217 0.03509396 -0.010446828 -0.019884432 0.0052244794 0.0005531972 0.047221243 -0.006208472
-0.036424723 0.041751504 -0.014727095 -0.02278231 0.004786065 0.02754301 -0.005102898 0.026995586
0.026555697 0.014492956 0.023388553 0.0189221 -0.010712336 0.043907084 -0.03331862 -0.013587008
0.009822121 -0.032302752 0.030438514 0.030402368 -0.026509369 0.0119654825 -0.033445254 -0.01600642
0.0057704155 -0.034515906 -0.011353475 0.026573567 0.028083028 0.0190914 -0.04643526 0.023722086
-0.014434801 0.0057250923 -0.010651568 0.014509705 0.011977105 0.007274904 0.03280909 -0.019977355
0.010004603 -0.016988713 0.034308907 0.0303963 -0.016263276 -0.002904884 0.009019204 0.017176425
0.00512577 0.0014944616 0.01577138 0.011268541 -0.012336271 -0.007799129 -0.017620936 0.0026184241
-0.029928725 0.03484425 -0.03126532 0.0340229 -0.013214931 0.010866784 0.02074837 -0.019921487
-0.0061848783 0.028336532 -0.042706173 -0.042207878 0.0337408 0.04786446 -0.005487794 0.018609773
0.015390739 0.034342967 0.00092690455 0.008672103 0.046965107 0.02008914 -0.05674499 0.034939256
-0.046304356 -0.04024322 0.0059936475 0.027185353 -0.0054903096 -0.0024997997 0.039828695 0.0018728164
-0.02443475 -0.022286128 0.015097978 0.015058173 -0.0067063803 -0.026082566 0.019363327 -0.00065921067
-0.029888919 0.02455678 0.005106114 0.038809177 -0.015377252 -0.017271765 -0.02869106 -0.0512446
-0.0010206767 -0.039706465 -0.0060789837 -0.017744241 0.020680841 -0.032224096 0.036664523 0.0022592125

q_net.0.bias f4 [256]
00000000: 624a 05bd 9c0d 7a3a 59fd 7cbd 51e0 fabb
00000010: 056f d5bb ff5f 29bd 890a bc3c 6a69 64bd
00000020: 2bf7 083d 29b8 55bd 7854 a93c d325 57bd
00000030: 5886 88bc 872b 163d 7f9a 723d f2b4 0cbc
00000040: 2b6d f3bc 9346 6a3d 8c7d 033d 3597 88bc
00000050: 9521 0e3d 0faa 0ebd 93f6 103d 5859 d6bb
00000060: d8a5 d03c 2cae 8f3c 4bbf 2b3d b0be 10bd
00000070: b574 d3bc c287 d9bc 5555 1ebc 6758 85bd
00000080: 6e87 b53c e731 513c 575d cabc 9b3d bebc
00000090: 9e0d ac3a fb24 eebc 2169 02bd 1675 45bc
000000a0: ef23 9a3c 93f5 8a38 141c 0dbd 919c 5dbd
000000b0: 7897 66bd 9179 393d bafd 303d cb56 bf3c
000000c0: daf2 f2bc 28ef 80bc ead5 22bb dfc7 183c
000000d0: f1aa 743d 036b 55bd 5e4f f6bc 2fb0 a1bc
000000e0: 09df 6fbb f3ba 353c 1516 263d f108 edbc
000000f0: 5012 1c3d ce2e f5bc b413 73bc d351 393c
00000100: 31ea a3bc 416e b0bc ac1e fd3c 3db5 2e3c
00000110: 383d 553d e111 ddbb 4033 cabc f410 54bc
00000120: 95de ce3b e33d a13b 5390 0f3d a4c4 4fbd
00000130: c6fc 72bd 2be6 5c3c c31a 0f3c a5d1 403d
00000140: ac5c 0c3d 82bc 353d 2adf 993c aa6f e23b
00000150: 59e1 803c abfb 393d fbc7 bebc a4f2 88bd
00000160: d101 07bd 008c e1bc d405 c4ba ed53 4ebc
00000170: ee7b 183c 705c e7bc 8da9 b63b 2b71 76bb
00000180: 68af 2f3d 2842 cf3c 4318 2cbc 149d 83bc
00000190: 3d7a f3bc 490a 173c cb9f 81bc b2fe e83c
000001a0: 2168 533d 3fe6 6dbc fc7a 063d 67b9 133c
000001b0: 3b90 c53c eea9 94bc 20fd 0dbb e270 e0bc
000001c0: c559 4d3d 4f46 433d 126e 9ebc 4998 513c
000001d0: 4544 723d c489 a9bc ee14 00bd bf5d 3a3b
000001e0: 7391 26ba 9bdf 6cbd 739a f73b b140 5dbc
000001f0: 0193 3b3d 0936 e93c 79c7 74ba f081 24bc
00000200: 172e 4a3c e9ba 29bc 910a c23c ece6 83bc
00000210: 648c 503c eb59 563c 17ca 8bbc b063 07bc
00000220: d122 0e3a ab6a 16bd deec ccbc 91eb 1bbd
00000230: 7b23 3cbd 0490 4cb9 97d4 c6bc 0e5f 1ebd
00000240: a5ae 8dbc b35b 72bd 90b0 2dbc 9e78 1f3d
00000250: 3b80 a93c 6f90 313d 28e4 aa3c 6ec6 e7bb
00000260: 31f6 133c 1fef 1c3d 9ad8 a03c 7665 6abc
00000270: f4ca 2c3c 23e8 a33b 637e 44bd 4224 93bc
00000280: 3216 41ba 5f09 15bd 3381 69bd 227a b2bc
00000290: d73a ca3b 74d6 c0bc 77bc 8fbc de5a 46bc
000002a0: 9a6e 583d 45b1 6fba 69cc a2bc 1a15 45bd
000002b0: 53cc e93c 397d 0c3c bc75 fd3c 1b97 413b
000002c0: fecf 1fbd 56a1 2b3d 8de6 8a3c 98c1 90ba
000002d0: f9d9 a7bc 032b 2fbd 92c6 e9bc 40f5 51bc
000002e0: 0ecf 86ba 7e0e f4bc 502f 143d 21a9 20bb
000002f0: 2c27 283c 0970 9d3c b9c9 b1bb 4467 e5bc
00000300: 884b da3c 07ad dc3c 9481 fbbb 787b 8d3c
00000310: fd0c 0fbd 7680 883c 4327 77bc 26e6 5cbb
00000320: 63fb 2fbd 1764 253d c1ea fabc 3570 1fbd
00000330: 0307 923c 406c b03c af60 a93c 0940 063d
00000340: 94e0 f2bc be44 15bd 9147 b03b fd10 4b3d
00000350: fc27 39bc f730 df3c 7e88 983b af4a f63c
00000360: 68dc e63c 8e93 af3b be01 0d3c c926 7cbd
00000370: a56f 443d 2cf1 463d 4a96 f0bc 6031 dcbc
00000380: da86 f4bc 8c4e 98bb aa33 1b3b 8c6d b43c
00000390: 042f 10bc 3a84 2a3c b177 32bd c2a7 34bd
000003a0: 55d8 a03c 59cd a6b9 be4d 74bd 3003 c6bc
000003b0: 084b eebc 756c e73b 37e8 68bd 2889 f13c
000003c0: 6a0c 17bc bfc6 a7bc aae5 783a 3972 3ebc
000003d0: 6a65 d23c 12e2 36bc a4e5 64bc d061 45bd
000003e0: fc22 f3bc e436 95bc 6931 af3c b97f b3bc
000003f0: d7a5 b43c 0f2f c23c af7b 09bd b19e db3c
-0.03254164 0.0009538771 -0.06176505 -0.007656135 -0.0065134787 -0.041351315 0.022954242 -0.055764593
0.033438843 -0.052177582 0.02067016 -0.052526306 -0.016665623 0.036662605 0.05922937 -0.008588063
-0.029715141 0.05719621 0.032102153 -0.016673664 0.034699995 -0.03483015 0.0353914 -0.0065414123
0.025469705 0.017539106 0.041930478 -0.035338104 -0.025812486 -0.026553992 -0.009663899 -0.06511002
0.022159304 0.012768245 -0.024702711 -0.023222735 0.0013126617 -0.029070368 -0.03183854 -0.012051841
0.018815963 6.6260945e-05 -0.034450606 -0.05410439 -0.056296796 0.04528195 0.043210723 0.023356816
-0.029656816 -0.015739039 -0.002484674 0.009324997 0.059733335 -0.052104007 -0.030067142 -0.019737331
-0.0036601445 0.011091935 0.040548403 -0.028934928 0.0381034 -0.029929545 -0.014836241 0.011311012
-0.020009132 -0.021536948 0.030898415 0.010663328 0.052060336 -0.006746516 -0.024682641 -0.012943495
0.006313155 0.0049207075 0.035049748 -0.05072464 -0.059323095 0.013482611 0.008734408 0.047074933
0.034268066 0.04436923 0.01878317 0.006910284 0.015732454 0.045406025 -0.023288717 -0.06686905
-0.032960717 -0.027532578 -0.001495535 -0.012593252 0.009306891 -0.02824232 0.0055744112 -0.0037604074
0.04289189 0.0253001 -0.010503831 -0.016066112 -0.029721374 0.009218761 -0.015823266 0.02844176
0.051612977 -0.014520227 0.03283213 0.009016371 0.024116626 -0.018147435 -0.0021665767 -0.027397577
0.05013444 0.047674473 -0.019339595 0.012792655 0.05914714 -0.020695575 -0.03126996 0.0028437225
-0.0006354071 -0.057830434 0.0075562536 -0.013504193 0.04579449 0.028468149 -0.0009337585 -0.010040745
0.01234009 -0.010359504 0.02368668 -0.016101323 0.012728784 0.013082962 -0.017064137 -0.008263513
0.0005422058 -0.03672282 -0.02501529 -0.03806645 -0.045932274 -0.00019508606 -0.024271293 -0.03866487
-0.017295191 -0.059169482 -0.010601178 0.03893339 0.020691028 0.043350633 0.020860747 -0.007073215
0.009030865 0.03831398 0.019634534 -0.014306417 0.010546435 0.005002038 -0.047972094 -0.017961625
-0.0007365673 -0.03638589 -0.05700798 -0.021786753 0.006171565 -0.02353976 -0.017545922 -0.012106625
0.052839853 -0.00091435417 -0.019872861 -0.048115827 0.028539812 0.008574777 0.03093993 0.0029539529
-0.039016716 0.04190191 0.016955638 -0.0011044024 -0.02048968 -0.04276563 -0.028537069 -0.01281482
-0.0010285096 -0.029792067 0.036177933 -0.0024514871 0.010263246 0.019218462 -0.0054256585 -0.028003342
0.026647344 0.026937975 -0.007675359 0.017270789 -0.034924496 0.016662817 -0.015085044 -0.0033706515
-0.04296435 0.040378656 -0.030629518 -0.03892537 0.01782561 0.021535993 0.020675985 0.032775912
-0.029648103 -0.03644251 0.005379625 0.04957675 -0.011301037 0.027245028 0.004654943 0.030064909
0.02818127 0.005358166 0.008606372 -0.061560426 0.047958035 0.048569843 -0.029368538 -0.026879013
-0.029849458 -0.0046480354 0.0023681917 0.022024892 -0.008800272 0.010407502 -0.043571178 -0.0441053
0.019634405 -0.00031814983 -0.059644453 -0.024171442 -0.029088512 0.0070624896 -0.056862082 0.029484347
-0.009219268 -0.020480512 0.0009494672 -0.0116239125 0.025683124 -0.011162298 -0.013970766 -0.048188984
-0.029679768 -0.01821465 0.021385865 -0.021911489 0.022051735 0.02370408 -0.03356522 0.026809068

q_net.2.weight f4 [128, 256]
00000000: 5ed6 e13c b6f2 af3c 0537 b9bb 93f1 5abd
00000010: e222 51bd b635 ab3c b780 12bc b818 8abc
00000020: 4b0b 3b3d 95d6 25bc 89ef 04bd a22c 31ba
00000030: 019d 66bd 9e8f 39bd 5fd7 f2bc 3ba9 e63c
00000040: 15a8 1dbd fdc6 c8b9 cb3c 90bc 360a 1fbc
00000050: be5c 27bd e7f2 abbc ce52 0fbd fa7d b4bc
00000060: 3657 c5bc 0bd9 e33c a363 323d cf57 f03c
00000070: 7e94 b63b 29f6 0b3d 734e 3b3d f3e0 043c
00000080: 6701 f1bc 471e 7ebc 09c1 80bd 410a 8f3c
00000090: 2601 4abd e692 b23c 6c2b 543c 3f25 163c
000000a0: d5c7 f7bc 2f83 3f3b 756b e1bc 3eac 72bb
000000b0: c52d 4cbd 1ca5 48bd 3a75 40bc 2c08 8bbd
000000c0: 5ca4 8bbd 9853 8ebd 8155 123b a93c 1fbd
000000d0: 80c9 35bd f5e3 e3bb 94b4 d4bc cbd2 87bd
000000e0: e27f b8bc 5e82 5fbd 85f8 21bd 55c5 523b
000000f0: 218d 9ebb 4d88 723d 81dd f33c 857d 123d
00000100: bc23 20bd c988 7ebd 3210 4b3d cd0e 6fbd
00000110: 3df4 5cbd 3920 0abd 8e7c a2bc f6ab 7dbd
00000120: e869 333d 4208 87bc b895 193d c42d 59bd
00000130: 2bf3 1a3d 37e9 7abc 2493 23bd 5d82 0cbc
00000140: 5b22 83bd c722 f4bc afc8 a93c deb6 02bd
00000150: d885 993c 68ce 8fbd b77f 003d 63c2 f13b
00000160: d571 64bc 7b9b 9bba c906 afbc 7bdc 2d3d
00000170: b4ee 1b3d 760f 7c3d 5e53 5ebd 7194 ac3c
00000180: 8a24 c03c 1543 57bd d4d2 40bd bc01 1c3d
00000190: 1b41 ec3c 1356 46bd 53af 0a3c 0194 183d
000001a0: e6e0 6dbd 2fc6 94bb bcc4 91ba 83ce cd3c
000001b0: dd73 273d 45ae 5d3c eb48 13bd 78d9 3dbd
000001c0: e286 153d 02db 8f3b c717 edbc bb5d 1fbd
000001d0: 70d0 40bd a1ae 74bd 2ec8 47bd 87fc 57bd
000001e0: 4b48 2bbd 5a4c 94bd 7fbe c0bc 6294 e2bc
000001f0: d73c ed3c b07e 9ebc 6243 4c3d f762 2fbc
00000200: f6d1 15b9 da80 4e3c 37ea 01bd 52a4 593c
00000210: 8302 c6bc 6b3e 403d 5563 5fbc b830 51bd
00000220: 3144 373d 4efa 5e3d 1871 5abd 55b8 6ebc
00000230: 8a16 123b 42b6 c5bc 4b21 653d a6c7 5abd
00000240: d9cd 5e3c e1ce 8f3c 22a1 d6bc 99f7 3abc
00000250: 98d5 1d3d 31b5 5a3d 9202 48bd bc18 283c
00000260: 9e31 483d 3798 81bd 046b 213d 7931 30bd
00000270: 5bd1 09bd 5177 083d cf80 b13c 1e52 20bd
00000280: f709 7dbd 7c5f 83bd 90e8 153d d2fa 4abd
00000290: 2329 573d 0b03 2a3b 5a91 15bd b306 3a3b
000002a0: 5e30 87bd 064e babc c918 35bd 89f9 85bd
000002b0: 1aa4 bdbc 2821 01bd 3f2d 7bbd 3c8c 1f3d
000002c0: 2442 dc3c 7635 0b3d 9c33 65bd 7c1e 17bd
000002d0: 6a5a 94bc f9b5 c4bb d93c 37bd 3ca6 f9bc
000002e0: a298 41bd e538 42bc 0a52 253d d0f5 50bd
000002f0: 11f4 553d d840 0dbd 9a64 463d 3183 c0bc
00000300: aa27 4b3d 7c4e 80bd 9601 8bbd d1f1 193c
00000310: 36f0 6ebd 6f46 293d 1123 cf3c 9698 adbc
00000320: b2fb 993c 9eb6 38bd a449 973b adff 4f3d
00000330: 0fea 1ebd 0657 5dbc 4ba6 dd3c 3aa8 b6bc
00000340: f6e4 22bc b5d0 88bd 5eb4 3b3d 43ab b0bc
00000350: 4546 d4b9 05ef aebc dbe6 32bd 7d27 22bd
00000360: 90df 14ba 160d 84bd 87d9 d53c fdc2 563d
00000370: 93af b53c f5b8 3d3c 6e95 2d3d 0c7e fcbc
00000380: d253 363d f0c9 4fbd 60a6 08bc ddfa 053d
00000390: 9bab 8dbc 32b6 493d 6178 143d 0bdf 6c3c
000003a0: 805b 133d c0ed 183d b167 cdbb 15e6 7fbd
000003b0: c071 efbc 1426 20bd b67b 3d3d 7860 76bd
000003c0: f4dd f6bc 3653 b63c bc12 d13c 92d3 81bd
000003d0: d654 5f3c 2405 72bd 7578 17bd ca70 c63c
000003e0: 48d7 06bb 319a 763c 0402 b93b 3561 ad3b
000003f0: 5751 54bd 9d9b b53c 5175 e33b 8bd2 0b3d
0.027568039 0.021478038 -0.005652311 -0.05345304 -0.051058657 0.020899635 -0.008941821 -0.01685749
0.045665067 -0.010121961 -0.032455 -0.0006758665 -0.056302074 -0.04530298 -0.029643713 0.028156867
-0.038490374 -0.0003829523 -0.017607113 -0.009707024 -0.04085993 -0.020989848 -0.034991078 -0.022032727
-0.024089437 0.027813455 0.043552052 0.029338745 0.005571901 0.034170303 0.045729112 0.008110273
-0.029419614 -0.015510148 -0.062868185 0.017460944 -0.0493175 0.021798562 0.012949806 0.009164154
-0.030246655 0.0029222479 -0.02751706 -0.0037028934 -0.049848337 -0.048985586 -0.011746699 -0.06788668
-0.068184584 -0.06949538 0.0022328796 -0.03887621 -0.04438162 -0.006954665 -0.025965013 -0.066320024
-0.022521917 -0.054567687 -0.039543647 0.0032161076 -0.004838601 0.059212018 0.029768707 0.035764236
-0.03909658 -0.062142167 0.049575992 -0.058363724 -0.05394386 -0.033722136 -0.019834783 -0.061931573
0.043802172 -0.01648343 0.0374963 -0.05302216 0.03782956 -0.015314392 -0.039935246 -0.008576003
-0.06403037 -0.02980174 0.020725576 -0.031912677 0.01874058 -0.07021791 0.0313718 0.007377909
-0.013943155 -0.0011871898 -0.02136554 0.042446595 0.038069442 0.061538182 -0.054278724 0.021066876
0.023454923 -0.05255421 -0.04707606 0.03808759 0.028839638 -0.04842193 0.008464652 0.037250523
-0.058075808 -0.004540227 -0.0011121253 0.025122887 0.04088198 0.013530319 -0.035958212 -0.046349972
0.036505587 0.0043901214 -0.028942002 -0.038907748 -0.04707378 -0.05973685 -0.04877489 -0.052731063
-0.04181699 -0.072411254 -0.023528336 -0.027658645 0.028959675 -0.019347519 0.04986895 -0.010704747
-0.00014287964 0.012603963 -0.031717505 0.013283806 -0.02417112 0.046934526 -0.013634522 -0.051071852
0.044742767 0.054437928 -0.05333051 -0.014570315 0.0022291266 -0.024134759 0.055939954 -0.053413056
0.013598883 0.017554702 -0.026199881 -0.011411571 0.038533777 0.053395454 -0.048830576 0.010259803
0.048875444 -0.06327861 0.0394087 -0.04301593 -0.033646923 0.033316914 0.021667866 -0.039140813
-0.06177708 -0.064146966 0.036598742 -0.049555607 0.052529465 0.0025941755 -0.03651557 0.002838534
-0.06601022 -0.022742283 -0.04421309 -0.06541736 -0.023149539 -0.03152576 -0.061322447 0.038952097
0.026887007 0.03398653 -0.05595742 -0.036894307 -0.018109519 -0.006003138 -0.044735763 -0.030474775
-0.047264703 -0.011854385 0.04036144 -0.051015675 0.052234713 -0.034485668 0.048435785 -0.023500057
0.049598373 -0.0626497 -0.06787412 0.009396032 -0.05833455 0.041326936 0.025285276 -0.021190923
0.018796775 -0.045096032 0.004616933 0.05078094 -0.038797434 -0.013509518 0.027056834 -0.022297014
-0.009942284 -0.06680433 0.04582631 -0.021566039 -0.00040488146 -0.021354208 -0.043677192 -0.03958844
-0.00056790654 -0.064478084 0.026104702 0.05243205 0.022178447 0.011579742 0.042378835 -0.030821823
0.04451353 -0.050729692 -0.008340448 0.032709945 -0.017293742 0.04924602 0.036247615 0.014457474
0.035975933 0.03733611 -0.0062684645 -0.062475283 -0.029229045 -0.039098814 0.046260558 -0.060150594
-0.030135132 0.022256475 0.025521629 -0.06339182 0.013631066 -0.059086934 -0.03698011 0.024223704
-0.0020575095 0.0150514105 0.0056459922 0.005291129 -0.051835384 0.022168929 0.0069414754 0.034136336

q_net.2.bias f4 [128]
00000000: 5983 a83c 0bfa e5bc ab60 533d a240 943c
00000010: a4e3 993b 5318 b7ba a857 04bd acf2 493d
00000020: 8c0c df3c 100c 8bbc 45a7 9f3b a207 f33c
00000030: 44f1 403d b115 633d 1fa1 49bd 38d5 8dbc
00000040: cbb5 29bc f085 2b3d 186e 2f39 f23c a53d
00000050: 270d 993b c66e 03bd be6b 11bd 6b1d 3f3c
00000060: 146e bcbb 0fe2 12bc 2181 01bc 5878 2e3c
00000070: f267 b8bc 19ff 45bd c380 66bd 2fbc e23c
00000080: e6b6 fdbc d686 dcbc b7a7 453d 0412 6c3d
00000090: ac1f 4a3d 7daf 153d 7dda 8cbd fe5e e4bc
000000a0: ab8a 07bd e1c6 9e3d f856 733d 63c1 1abd
000000b0: 55a5 5b3c b021 7ebc 5dde 4f3d 968f e33c
000000c0: dea7 b3bb ae7f 95bc 3899 873c 3ab4 a4bc
000000d0: 4000 603d bdc5 bebc 8363 88bc 4f7d 34bd
000000e0: e254 d53b 5632 c6bc 328c 223d da59 6abb
000000f0: ff2a 9ebd 2188 6abd 5a14 f73c 026f 9c3c
00000100: c07c 893d d820 2fb8 d115 683d 87d4 333d
00000110: 9a21 4f3b 6313 823d 092c 8abd 6447 3b3c
00000120: 20d0 e73c 53d0 483b 814a 72bc 163c 223d
00000130: 0a39 8ebd 402a de3c d601 f83a 6a4b 15bd
00000140: b166 4a3c 8be1 c5bc 4e00 7dbd ec9e ed3c
00000150: 0c8c 743b c9f7 08bd 347b 88bc acfa 13bd
00000160: f28e 5abd 6b10 9b3d 7dd4 c3bc 48c9 86bc
00000170: 01e0 5abd e7ae 453d 0eea 8abc 779c 3dbd
00000180: d2ec 303d dfff ebba 1059 f03c 4f61 54bb
00000190: eafe 08bd 90dc 7abd 552d e83c 213e fe3c
000001a0: 22d3 7fbd dbeb e73c 4c70 13bd df3b 213d
000001b0: b33d 203d 2bbd 573b d89d 783d 9efd da3b
000001c0: 1f6b a33d 1c40 37bd a365 e23c abb9 89bd
000001d0: 192f 89bd 2a5d 32bd 446e 073d 053c 733d
000001e0: bb01 063d 0249 5abd 4a34 4f3d 2096 8b3d
000001f0: 46ce 3d3d da12 1fbb a880 923d 78a7 103d
0.020570444 -0.028073331 0.05160586 0.018097226 0.0046963263 -0.0013969041 -0.032310158 0.049303696
0.027227663 -0.016973525 0.004872235 0.029666726 0.04710509 0.05544061 -0.049225923 -0.017313585
-0.010358284 0.04187578 0.00016730314 0.08068265 0.0046707573 -0.032088064 -0.03550314 0.011664729
-0.005750427 -0.008965029 -0.007904322 0.010648809 -0.022510502 -0.048338983 -0.05627514 0.027677624
-0.030971002 -0.026919764 0.04825565 0.05763437 0.04934661 0.03654431 -0.06877611 -0.027877327
-0.03309123 0.07752777 0.05940911 -0.037782084 0.013406117 -0.015510961 0.05074917 0.027778428
-0.005482658 -0.018249359 0.016552553 -0.02010547 0.05468774 -0.023287648 -0.016649013 -0.044064816
0.006510363 -0.024193924 0.039684482 -0.0035759122 -0.077230446 -0.05725873 0.030161072 0.019095901
0.06713247 -4.175384e-05 0.05666143 0.043903854 0.0031605721 0.06351354 -0.0674668 0.011430595
0.028297484 0.003064175 -0.014788271 0.039608084 -0.06944473 0.027119756 0.0018921446 -0.036448874
0.012353585 -0.024155399 -0.06176787 0.029006444 0.003731492 -0.03343943 -0.01666031 -0.03612773
-0.05335898 0.07571491 -0.023905033 -0.0164534 -0.053436283 0.048262503 -0.01695731 -0.046291795
0.0431946 -0.0018005333 0.029339343 -0.0032406633 -0.03344623 -0.0612455 0.028341928 0.031035485
-0.06245721 0.028310707 -0.035995767 0.03936374 0.03912134 0.003291915 0.060697407 0.0066830656
0.07979416 -0.044738874 0.027636355 -0.067248665 -0.06698436 -0.04354588 0.033064142 0.05938341
0.032716494 -0.053292282 0.050586976 0.068157434 0.046339296 -0.002427271 0.071534455 0.03531596

q_net.4.weight f4 [1, 128]
00000000: ce16 0fbc adc3 a3bd 3683 3cbd b775 7cbd
00000010: 3133 093c f8a5 31bc 75f7 8b3d df9b f2bb
00000020: f7b7 26bb 6b56 66bb 0ef4 6c3d 512a a13d
00000030: 171d 84bd 3024 75bd fec0 f53c da6c 783d
00000040: 354e 78bc 17dc b63d aa35 343d 468b 203d
00000050: 971e 2dbc b17c d83c a092 1b3d c725 67bc
00000060: 2a98 95bc 17ff 99bd 97ea b4bc eea6 b53d
00000070: 39ac 853d ca0c 573d 9448 79bd 8f5e 61bd
00000080: 5970 803d 20ee f73c 2cb2 7abd d47d a33c
00000090: bc63 443d 3683 9b3d 9f67 41bd 4d07 f8bc
000000a0: 5878 253d c4dc c03d 68f9 d73c 98eb 923d
000000b0: 5d82 1fbd 2ba0 94bd ada6 033d ea31 123d
000000c0: 2c2c a038 2b8b 7cbd 1396 703d 987e 963d
000000d0: 041e b63b 470f 8fbd bc10 42bd 426d 34bd
000000e0: 1a06 d2b9 3826 463d f1a9 853b a6bd 6bbd
000000f0: 84a6 63bd 1352 e93a bdf5 b03c 60ce 993d
00000100: dcb8 b63d 0916 22bd a7f5 303d 0ca7 283d
00000110: d77b 1e3d 7a8e dd3c 481c f33b de94 03bd
00000120: 5547 cabc e3da 7a3a 0c16 c03c 5559 b33d
00000130: 47c7 373b 1cbf 0c3d 59d9 77bd 2048 b3bc
00000140: 4ddd 26bd 1eb6 28bc cc27 e6bc 24c5 583c
00000150: 8751 843a 3ea9 1abd 14a4 4e3b 3d0a 393d
00000160: 1681 60bd 4663 433c 9333 5ebd b696 6c3d
00000170: a606 1cbd 686a 1ab9 4f30 f13c f833 8bbd
00000180: b352 cb3a cbb7 9b3b 447c b63d cf5e 1f3d
00000190: 1f95 b3bd e0f5 7dbd 3d61 713b fede 993d
000001a0: d70e a13a 50dd 18bb 5a8f bd3a a2b2 69bc
000001b0: c05f 38bd a80c 93bb d56b 493d c2a8 f63c
000001c0: d9a4 bf3d ffbc b93c 838b 0a3d 0635 17bd
000001d0: cdd1 50bc ee25 a3bc 5cf3 a83d debb a43c
000001e0: 1cc5 3bbd db88 5d3d cbe1 8ebd efab 053d
000001f0: 4955 153d 7bf1 343d 6f1b 773c ed72 1a3a
-0.008733464 -0.079963066 -0.04602357 -0.0616357 0.008374021 -0.010842793 0.06834308 -0.007403835
-0.0025439241 -0.0035146724 0.057849936 0.07869399 -0.06450861 -0.059848964 0.029999252 0.060650684
-0.015155365 0.089286976 0.04399649 0.03919532 -0.010566375 0.026426645 0.03798163 -0.014108128
-0.018261034 -0.07519358 -0.022084517 0.0886973 0.065269895 0.05250243 -0.06086023 -0.05502182
0.062714286 0.030264914 -0.061205074 0.01995746 0.047946677 0.07593386 -0.04721796 -0.030276919
0.040397972 0.09417108 0.026364043 0.07173842 -0.038942683 -0.07257112 0.032141376 0.035692133
7.637622e-05 -0.06165616 0.058736872 0.073483646 0.0055577774 -0.06985336 -0.04737924 -0.04404951
-0.00040058867 0.048376292 0.0040790965 -0.05755391 -0.055578724 0.0017800949 0.021601552 0.07510066
0.08921978 -0.039571796 0.043203022 0.041174933 0.03869232 0.027045477 0.007419143 -0.032124393
-0.024692217 0.000956936 0.023448013 0.08757273 0.0028042363 0.034361944 -0.060510013 -0.021884978
-0.040738393 -0.010297326 -0.028095149 0.013230596 0.0010095098 -0.03775906 0.0031530904 0.04517578
-0.054810606 0.011925524 -0.054248404 0.057760917 -0.038092278 -0.00014726224 0.02944198 -0.067970216
0.0015512317 0.0047521344 0.089104205 0.038908776 -0.08768677 -0.062002063 0.003683164 0.075132355
0.0012287748 -0.0023325272 0.0014462278 -0.014263781 -0.04501319 -0.0044875927 0.049175102 0.030109767
0.09357614 0.022673128 0.033824455 -0.0369158 -0.012745333 -0.019915547 0.08249542 0.020109113
-0.045842275 0.054085594 -0.0697666 0.03263467 0.036458287 0.044175606 0.015082224 0.0005891759
