models/dqn_model_seed0_final.pth (torch, 350209 bytes, 20 tensors)

net.0.weight f4 [128, 35]
00000000: 9e02 c7bb f7be a53d 6dc3 13be 73b3 fabd
00000010: 978d acbd aaa8 393d 8b7b 5bbb 443d 093e
00000020: 94c4 75bc 6034 373d c13c 51bd 9517 08bd
00000030: e55b 25be 0044 e5bd 8fb3 8ebd 522d cd3b
00000040: f0da 883d 87b6 cf3d b6af eabd 15bf 96bd
00000050: 3779 7b3d d7ba 0f3e 5f7c 0ebd 0286 013e
00000060: d230 dfbc 5785 923c 08ba 1c3e 7791 20be
00000070: 2fee d9bd 6f47 2fbd 67f0 86bd 3d8c 153e
00000080: 3165 e5bd 592b 97bd 5987 07be 6a1b 22be
00000090: 9313 cabd 27c9 143e 4078 9a3d 17c8 a73d
000000a0: aba5 113c 727a b1bd 2845 ea3c 689c 21be
000000b0: 6e22 fabd b476 b2bd 416a da3d 48f8 ca3d
000000c0: e786 99bd 6dda c7bb 6966 dd3d 7512 2c3e
000000d0: 0964 893d 2c10 bb3c 101b e83d 29d4 cbbd
000000e0: ee03 013d 1d32 06be e1ed efbd 12d4 b2bd
000000f0: 8ba2 9c3d cb37 8b3d c70e cdbd f929 513d
00000100: 5d0a be3d f5c5 aebc e47a d33b bc6b 203d
00000110: 4cc2 d63d 32d7 103e a862 05be b7b9 7dbd
00000120: de0c 883d 5f69 0f3e 419f 163e 9ab9 183e
00000130: acc9 093d 9383 16be 9fc3 7e3c ac91 d8bd
00000140: 484f 21be 7ac9 193e dd9b 033e e2a8 2cbe
00000150: b196 013d 4644 e9bc 31de e3bc cd76 9ebd
00000160: b11f 853d 700a cdbd 44cf 7d3d 4710 af3d
00000170: 25d1 f73d 5270 813d 964f 2bbe 1190 e0bd
00000180: b8d9 ac3d ede8 103d da05 07be 9c55 c7bd
00000190: ffd4 223e 4f42 e93d ebf0 96bd 0941 2ebd
000001a0: 06e2 24be 441c 47bb 5c58 02be 2483 05be
000001b0: ca97 18bc ede7 cf3c ebc4 8dbd 9f69 cd3d
000001c0: 40a9 d2bd f40d 1d3e da3b ed3d 39f6 11be
000001d0: ad50 2cbd e1ec f93b 8207 ca3c 2b35 243d
000001e0: 53d9 873d 3ae3 253c a8e8 a8bd 68ce a33d
000001f0: b908 26be 2b2e cdbd e350 2dbd 66a0 a8bd
00000200: 0f35 72bd c8dd 0dbe fe45 13bd 8dfe 133d
00000210: 7285 e1bd b81f 0ebc 4ecf f73d fb58 8ebc
00000220: 83ef 993b c8e9 6ebc 1b7a 963d 98c0 373e
00000230: e4a4 273e 60c2 d93d a47e 283e 7ac1 77bb
00000240: ccb2 22be 201d a4bd 65b6 eb3d ea9e 8fba
00000250: ab10 acbd 99a3 04be 00fc 21be 5c16 12be
00000260: 216f 0cbd 34d8 bd3d 1128 bb3d 62ee 26be
00000270: 17f0 d73d 5371 07be b75e 12bd 545d 8cbd
00000280: 755b 05bd 1df0 07bd f451 1bbe 4c73 15be
00000290: 60ad d8bc f241 0f3b 3942 9dbd 6767 823d
000002a0: f8c9 1bbe 36e6 3abc 7237 183e bb33 8dbd
000002b0: fd4d 253e a112 b93d 03ec 21be 2c06 db3d
000002c0: 6cc9 9fbc f388 9abd fa68 0a3e 0adf 0bbe
000002d0: d095 943c ddf4 10bd 4435 f73d 0c44 413d
000002e0: ca56 a63d 7d82 743d 247e 26bd e59a 11bd
000002f0: 65a3 0ebe af92 bb3d 816d 093e 95dc ec3d
00000300: 382f f4bd ae07 f73b db07 f4bd 5f90 bebd
00000310: dab7 c9bd 779b 6c3d 544a cebd b3ae 71bb
00000320: cd01 e93b 0a27 df3d 23d7 02be 4ba7 edbd
00000330: b702 c9bd b04c f23d 2fe0 78bd cdac 253e
00000340: 8896 8a3d 60a2 3c3d 86ec a4ba 69dd 08bd
00000350: bcbb ad3c 3218 1ebd 10ac 9bba 9dad b03c
00000360: d763 07be f870 b5bd 58c4 0b3e fa77 0cbe
00000370: 34dc 46bc 9639 2b3e 441a 7a3d 02d2 9c3b
00000380: daff 15be cf7c ab3d ec92 f6bd 9588 44bd
00000390: 7b4b 68bd 840e cdbc 0e57 f23a 92c3 0e3e
000003a0: 4add ac3c 8708 1b3e 79c2 d33d 55db dabd
000003b0: d042 9b3d bab5 f4bd beb7 92bd cea2 4b3d
000003c0: ce9b 643d ecda 013e e9e0 5ebd ac48 7a3c
000003d0: b5c1 0a3e c110 32be 7b91 ec3d 7f28 1abe
000003e0: 2c58 41bc c3a6 ffbc 3452 b6bd 6f04 b73c
000003f0: 1e21 0f3e 3563 4abd ac85 cdbd 6e07 80bd
-0.00607331 0.08093064 -0.14430018 -0.122412585 -0.084254436 0.045326866 -0.0033490385 0.13402277
-0.015000481 0.044727683 -0.05108333 -0.033225615 -0.16148336 -0.111946106 -0.06967842 0.006261506
0.06682384 0.10142236 -0.114592955 -0.07360665 0.061394896 0.14036117 -0.03478658 0.12648776
-0.027244959 0.017885847 0.1530534 -0.1568049 -0.10641133 -0.042792734 -0.06588822 0.14604278
-0.11200941 -0.07381315 -0.13235225 -0.1583077 -0.09867015 0.14529859 0.07542467 0.08192461
0.008889596 -0.08665933 0.02859743 -0.1578232 -0.12213598 -0.08714047 0.106647976 0.09910637
-0.07496434 -0.0060990364 0.10810549 0.16803916 0.06708533 0.02283486 0.11333287 -0.09952576
0.03149789 -0.13105054 -0.11715294 -0.087318555 0.0764819 0.06797751 -0.10012584 0.05106542
0.092793204 -0.021334628 0.0064538587 0.039165244 0.10486278 0.1414459 -0.13025916 -0.06194469
0.06643079 0.1400504 0.14709188 0.14914551 0.033639595 -0.14698629 0.015549569 -0.1057466
-0.157529 0.15018263 0.12852426 -0.16861299 0.03163785 -0.028474938 -0.02781591 -0.07737503
0.06500185 -0.100117564 0.061965242 0.085480265 0.12100438 0.063202515 -0.16729578 -0.109649785
0.08439964 0.035378385 -0.13185826 -0.097331256 0.15901564 0.113896005 -0.0737017 -0.04254249
-0.16101846 -0.0030381838 -0.12729019 -0.13038307 -0.009313533 0.025379146 -0.06922325 0.10029911
-0.10286188 0.15337354 0.115836814 -0.14254083 -0.042069126 0.007627115 0.024661783 0.040089767
0.06633248 0.010124976 -0.08247501 0.07998353 -0.16214265 -0.100185715 -0.042313468 -0.082337186
-0.059132632 -0.13854134 -0.03595542 0.03613143 -0.11011781 -0.0086745545 0.12100087 -0.017376414
0.0046977415 -0.014582105 0.073475085 0.17944562 0.16371495 0.10632777 0.1645456 -0.003780453
-0.15888518 -0.08013368 0.11509398 -0.0010957394 -0.08401617 -0.12953033 -0.15818787 -0.14266342
-0.03428567 0.09269753 0.091385014 -0.16301873 0.105438404 -0.13226824 -0.03573486 -0.068537384
-0.032557923 -0.033187974 -0.15167981 -0.14594764 -0.02644986 0.0021859375 -0.076786466 0.06367379
-0.15213764 -0.011407426 0.148649 -0.068946324 0.16143031 0.09036756 -0.15812688 0.106945366
-0.019505225 -0.07545652 0.13516608 -0.13659301 0.018137842 -0.03538977 0.120707065 0.047184035
0.081220224 0.059694756 -0.04064764 -0.03554811 -0.13929518 0.09158837 0.13420679 0.1156551
-0.11923069 0.0075387573 -0.11915561 -0.0930488 -0.0984952 0.05776545 -0.10072771 -0.003687781
0.0071108104 0.10896118 -0.1277738 -0.11604174 -0.09814971 0.11831033 -0.060760673 0.161792
0.06766993 0.04605329 -0.0012582697 -0.03341428 0.021207683 -0.038597293 -0.001187684 0.02156716
-0.1322168 -0.08859438 0.13649118 -0.13717642 -0.012137461 0.16721186 0.061060205 0.004785777
-0.14648381 0.08373415 -0.12039742 -0.047981817 -0.05671261 -0.025031336 0.0018489079 0.13941792
0.021101613 0.15139972 0.10339827 -0.106863655 0.07581103 -0.11948724 -0.07163952 0.04971581
0.05581265 0.12681168 -0.05441371 0.015276115 0.13550456 -0.17389204 0.11551186 -0.1505451
-0.011800807 -0.031207448 -0.08902398 0.022340981 0.13977477 -0.049411017 -0.100352615 -0.06251417

net.0.bias f4 [128]
00000000: a1f0 e5ba e1b4 20be dbef c9bd 0e24 513c
00000010: 2151 f33c c1c0 a63d 5cde a03c adf9 9dbd
00000020: 5f71 c73d 604b 28be cc58 e23d 4106 d0bc
00000030: 9b3f ea3d b683 123e 4adb a53c 9ecd 4d3d
00000040: b27d b9bd 8806 283e 53c0 cc3d 821f 2bbd
00000050: 9189 6c3d b2a7 92bc d092 2d3e 2b45 603d
00000060: 688c 0f3e e7c6 19be c5a6 393e eb56 353d
00000070: f785 f73d 21bc a93d b2f6 0d3e 9690 333e
00000080: 2424 4b3c 46d3 1bbe 3423 203e dc47 bebc
00000090: 33ff 9fbd 79bd e23d 649d df3d 8bd7 c43c
000000a0: 04bc 1ebd a2f4 fabc 7b16 2c3e 961a e03d
000000b0: cb5d 0a3e 1521 d53d d554 a9bd 368f 103d
000000c0: 70bd 11be c710 b63d 1c43 2fbe 05fc 2cbe
000000d0: 48c1 30be b8c9 f83d f0eb 063d 70e2 a43c
000000e0: ac13 a83c 80a7 9abd 61d7 3cbd e666 e9bc
000000f0: c73d 27bd 1618 dcbd cab8 d83b 3a6e 123e
00000100: 1517 0fbe c53e 153e 7dea 06be fb2c c2bd
00000110: 1595 bf3c 9fb9 8d3c 7b89 033e 3f8b f3bb
00000120: b4b4 a0bd 8985 f0bc c188 f6ba d373 05be
00000130: 7697 06be bd55 8ebd 0c57 e8ba 3ede eebd
00000140: b0aa f0bd 9018 1a3e 6fb6 233e 2d2b 96bd
00000150: a262 1abe 02cf 88bd 5225 743d fedf 883d
00000160: 3ea5 58bd 73ae 29be 4f7a 15bd 81c0 013c
00000170: 2c1e d23d 7ea1 b9bd cb4e b03d 53d4 2f3d
00000180: 8b21 d13c c0ed 15be 386f 403e 6b2b 2cbd
00000190: 4c9d 023e c410 b3bd ce45 38be f0f0 06be
000001a0: e068 b1bd 771f 9ebd 6b1f 15bd 4d04 203e
000001b0: 04b7 23be a39a ec3d a03c 1a3e 6a11 18bc
000001c0: 2c67 69bd ee5f c6b9 1825 0a3d 2bb8 c93d
000001d0: 8cf0 80bd f553 83bd e327 c3bc aa69 27be
000001e0: 69a2 ac3d 56db 02be 5f57 9ebd 29f6 58bb
000001f0: 1d96 fa3d aa67 143e 45cb fbbd de22 323e
-0.0017543026 -0.15694 -0.09860202 0.012764944 0.029701771 0.08142234 0.01963728 -0.077136375
0.09738421 -0.16435003 0.11052093 -0.025393607 0.11437913 0.14308056 0.020246167 0.05024492
-0.090571776 0.16408741 0.099976204 -0.041778095 0.05774838 -0.017902229 0.16950536 0.054753464
0.14018404 -0.15017281 0.18130024 0.044272345 0.12086099 0.08287836 0.13863638 0.17535624
0.012398753 -0.15217313 0.15638429 -0.023227625 -0.07812347 0.11071295 0.10918692 0.02402856
-0.038753524 -0.030634228 0.1680545 0.10942571 0.13512342 0.104067005 -0.082681336 0.035292827
-0.14232421 0.08889919 -0.17115444 -0.16893013 -0.17261231 0.1214785 0.03293985 0.020127505
0.020517193 -0.07551479 -0.04610384 -0.028491449 -0.0408304 -0.107467815 0.0066138254 0.1429986
-0.13973649 0.14574726 -0.13175388 -0.094812356 0.023386518 0.017300425 0.12845413 -0.007432371
-0.078469664 -0.02936055 -0.0018809066 -0.13032465 -0.13143715 -0.06949947 -0.0017726137 -0.11663483
-0.11751306 0.15048432 0.15987562 -0.07332454 -0.15076688 -0.066801086 0.059605904 0.06683348
-0.052891962 -0.16570453 -0.036493596 0.007919432 0.10259661 -0.09064005 0.086087786 0.042927098
0.02552869 -0.14641476 0.18792427 -0.042033594 0.12755316 -0.08743432 -0.17995378 -0.13177848
-0.086625814 -0.07720845 -0.036406916 0.1562664 -0.15987784 0.11552932 0.15062189 -0.009281496
-0.056983158 -0.00037836976 0.03372678 0.098495804 -0.06295881 -0.06412498 -0.02382273 -0.16348901
0.08429415 -0.12778983 -0.077315085 -0.0033105707 0.12235663 0.1449267 -0.1229463 0.17396113

net.2.weight f4 [128, 128]
00000000: dd0b a43d e43b 923d a928 fc3b 8b62 913d
00000010: 825c 343d 64e4 81bd 84d2 3ebd 86d3 333b
00000020: e248 80bd f36c eebc a35f 943d 6a65 2d3d
00000030: 60a5 9d3d 0494 ac3a 6c0b 37bd 24f7 733d
00000040: bd85 d53b eadf 733c 6c1e 14bd 07b7 143d
00000050: 1fba 83bd fd72 903d 0b5d 9e3d d73c 073d
00000060: e420 8f3d 5dec 5f3d 3edc 05bd 0e01 9dbd
00000070: 1790 3e3c 12ef 673d fb25 14bc a1c3 0a3c
00000080: 982b 863d a87b 153d 038d 893d a9a4 543c
00000090: f554 273c f5fd a4bc c55f 74bc 4a92 3bbd
000000a0: f60c 723d 3819 a53d a5a3 0a3d 1497 243b
000000b0: 8705 efbc caa1 b0bd 2346 87bc ba81 80bd
000000c0: eba2 83bd 8fca 85bc cb77 85bc a510 923c
000000d0: a6ba 80bd 2744 843d ba95 a2bd 8a56 41bd
000000e0: d972 09bd b1f5 e53b 5fec 193d 47d1 bebc
000000f0: 113a 673c 680c a2bc b964 0ebd 3590 4abc
00000100: 7ec9 913c 54d5 afbd 3434 77bd c33e 8f3d
00000110: 01e8 273d 6ce1 1abb 56c6 823b 2b87 5a3c
00000120: 5898 b03c 7b2d 77bd 5f96 b8bc 8de3 a3bd
00000130: 9546 8cbd fab3 7fbc bb35 3fbc e1af 8f3d
00000140: 1e70 793c e6cf 6abc 427b 20bb 352d 4f3d
00000150: 67b2 d3bc 20c9 7bbc 4441 91bc eca0 8fbd
00000160: da87 39bc 8157 a7bd cfe8 3ebd 4f71 66bd
00000170: 15ed 883d 8dc0 a6bd cdd9 b03d 61cc 0b3d
00000180: cea9 74bd d36e 973d 0dfe 96bc 1852 99bd
00000190: bd1b 49bc 55ec 323d 4201 aebd af0d b8bb
000001a0: b34e 133d 7a56 08bd f176 163c dfd3 09bd
000001b0: 12aa 6ebd 7bc3 8d3d 1ed9 7abd e6f8 f938
000001c0: 3a29 f13c ddd1 45bd adce 2e3d 4154 96bd
000001d0: 9656 af3d 70bb 253d 5a05 4dbc 3994 96bd
000001e0: eb20 123b 216b 003d 2f88 40bd 5932 29bc
000001f0: 8f0c b2bd 2ff7 b4bd b446 1dbc 9677 973d
00000200: 4d66 54bb c501 e33c 6bb6 10bd 9765 c83c
00000210: 698c 0cbc 7b31 beba 2c2c d93d 542d 663d
00000220: 7f72 d2bc a216 de3c 443d 10bd 2840 4bbd
00000230: 6295 cc3c 5af3 d2bc 8d71 4cbd 32af 673c
00000240: fad2 8e3d f8eb 033d 8512 9dbb 40ab f0ba
00000250: ea72 17bd 97d9 873d c064 033e 805c e3bb
00000260: 8e09 ea3b b2ee 933d 2ae1 963d bb1b ecbc
00000270: dff7 f1ba ae30 afbd 7aa9 d53d 6480 8f3d
00000280: aa8f 943c 8045 cd3c f529 b93c b140 0cbd
00000290: ddcc 113d dffb 353d 5f66 4c3d 59bc 283c
000002a0: 00f2 033d 425a cb3d a48e a23d dd6b 5c3d
000002b0: 1ef7 9f3d 82af b4bc 69a3 573d 9268 0ebd
000002c0: 2838 93bd 0aa3 2e3d d6bd 0a3d 0460 9f3c
000002d0: 0ef8 1e3d 67d9 3d3c bbb9 ff3c c1e3 a53d
000002e0: fc87 afbc e271 4cbb 023b 6b3c cb06 183d
000002f0: 9784 97bd 0606 1c3c 933e b13d 6aec 0dbb
00000300: f2b9 b13d b795 953d 68c6 1e3d bbbb 07bd
00000310: ffee 91bd 3013 2ebd 2002 823b 274e 20bd
00000320: 4b51 a33d 643d 1abc b6ba 6cbd fcdc f7bc
00000330: 3d6e a43d 6558 21bd 6621 c93d c031 323d
00000340: d843 cebb 9db0 ac3d e90c ae3d a423 33bd
00000350: 4d77 8dbc 84c3 b13d 52b4 993d d105 2cbd
00000360: 1d4d babc 708e 0a3d f283 3b3d 03a9 733d
00000370: 41b2 64bd 1d72 96bd cc61 8ebc 6044 093d
00000380: 3b70 073d cfe5 95bd 7bc2 a8bc 2841 b23d
00000390: 26c7 dcbc fe7c 8cbd 8590 673d d02a b63d
000003a0: 4722 aebd 2b50 a1bd 0c17 d9bc d2c5 b63d
000003b0: 7e45 49bd 043f 643d 6d62 973d 92c1 f6bc
000003c0: a756 b73c 2f87 6ebd ad78 473d fd07 003e
000003d0: 12fa 183d 5b79 813d e0f7 3d3d d205 66bc
000003e0: 4ded a73c d47c 4e3d 6b98 2dbc 35dc 98bd
000003f0: 0b78 f4bc 34b1 903d 2f7d b03d 08b6 143d
0.08010075 0.071403295 0.0076952768 0.07098874 0.044033535 -0.0634239 -0.046587482 0.002743931
-0.06263901 -0.029104685 0.07244804 0.042333044 0.076975584 0.0013166671 -0.044688627 0.059561864
0.006516187 0.014884928 -0.036161825 0.03630736 -0.06431984 0.07053182 0.0773259 0.033017006
0.06988695 0.054668773 -0.032680742 -0.07666217 0.011631033 0.05662448 -0.009042258 0.008469493
0.065512836 0.03649488 0.06716349 0.012978711 0.010213126 -0.020140627 -0.014915411 -0.04579381
0.05909439 0.08061451 0.03384747 0.0025114464 -0.02917744 -0.08624609 -0.016512936 -0.062747434
-0.064275585 -0.016331939 -0.016292473 0.017830202 -0.062856 0.064583115 -0.07938714 -0.04720167
-0.033556793 0.007017814 0.037578937 -0.02329315 0.014112965 -0.019781306 -0.034764025 -0.012363483
0.017796274 -0.08585611 -0.06035252 0.06994393 0.04099274 -0.0023632897 0.0039909286 0.013337891
0.021557018 -0.060346108 -0.02253264 -0.08002386 -0.068494 -0.015606875 -0.011670525 0.07015968
0.015224485 -0.014331793 -0.002448753 0.050580222 -0.025841905 -0.015367776 -0.017731316 -0.07013115
-0.011323893 -0.08170987 -0.046608742 -0.056260403 0.06685845 -0.08142195 0.08635292 0.034130458
-0.05973225 0.07394185 -0.018431688 -0.07486361 -0.01227468 0.043682415 -0.08496334 -0.0056168656
0.035963725 -0.033285595 0.009183631 -0.03364932 -0.05826766 0.069220506 -0.061242215 0.00011919606
0.029438604 -0.048295844 0.04267757 -0.07340289 0.08561437 0.040461957 -0.012513483 -0.0735249
0.0022297453 0.031352166 -0.047004875 -0.010326945 -0.086938016 -0.08836209 -0.0095993765 0.07395856
-0.0032409609 0.027710805 -0.035330217 0.024462504 -0.008578398 -0.0014510596 0.10604128 0.056195572
-0.025689362 0.027110402 -0.035214677 -0.04962173 0.024973575 -0.025750805 -0.049912978 0.014140891
0.06973834 0.03220746 -0.0047934675 -0.0018361583 -0.036974825 0.06633299 0.12831402 -0.006938517
0.0071422523 0.07223262 0.073671654 -0.028821817 -0.0018460712 -0.08554207 0.10432716 0.070069104
0.01813491 0.025057554 0.022603014 -0.034241382 0.035595763 0.044429656 0.049902316 0.010298812
0.03221321 0.09929325 0.07937363 0.053813804 0.07810806 -0.022056345 0.052646074 -0.034767695
-0.07188445 0.042635955 0.033872448 0.019454964 0.038810782 0.011587477 0.031216493 0.08100081
-0.021427147 -0.003119581 0.01435733 0.037115853 -0.073983364 0.0095229205 0.08654513 -0.0021655806
0.086780444 0.073039465 0.038763434 -0.033138018 -0.07125663 -0.042498767 0.0039675385 -0.039137032
0.0797449 -0.009414051 -0.05779525 -0.03025674 0.08028839 -0.03939094 0.09820823 0.043504477
-0.0062947087 0.08432124 0.08498556 -0.04373516 -0.017268801 0.0867987 0.075050965 -0.041997734
-0.022741849 0.033827245 0.04578013 0.059487354 -0.05583406 -0.07345984 -0.017380618 0.033512473
0.033066016 -0.07319223 -0.020600548 0.08703834 -0.02695043 -0.06859778 0.05653431 0.088948846
-0.08502632 -0.07876619 -0.026500247 0.0892445 -0.04913854 0.05572416 0.0739182 -0.030121598
0.022380186 -0.05823439 0.04869907 0.12503047 0.03734786 0.06321975 0.04637897 -0.014039474
0.020498896 0.050412014 -0.010595421 -0.07463876 -0.029842397 0.07065049 0.08617627 0.03630641

net.2.bias f4 [128]
00000000: fe6a 7cbd 4473 0b3d 3af9 52bd ff96 83bd
00000010: 56cc 4cbc 7686 d03c 4914 ba3c 0457 7bbd
00000020: 8e83 8abd fe7c d43d 96d7 b63c f65f 86ba
00000030: fd34 973d 13e7 48bd 50ce 343c b293 bf3c
00000040: 6465 afbd 48aa 4d3d 54e2 773d 1975 23bd
00000050: 93d4 20bc 2608 8abc 3ae0 8d3c d754 0fbd
00000060: 89e1 91bd a9fb fabb eab5 3a3b 0033 46bd
00000070: 2bf9 7b3d 87b1 9dbc 0439 bd3d 127a adbc
00000080: 2b09 01bd babf 68bc 0ca8 473d a626 a43c
00000090: 5166 633d 8513 3f3d 3b03 9cbd 5c86 393d
000000a0: 6ee2 4bbd 3fc9 543c 1251 79bd 50ac 873c
000000b0: 5b8b b7bc e3af d33d 423a 8c3d fd99 933c
000000c0: ba56 8cbd 235d e4bc 9008 32bc 17fb fcbc
000000d0: 673f 1dbb 27fe b2bd 5b1a 123d c6ca 89bd
000000e0: f9b4 66bd 7c5d 153c 7485 1c3d ad7f 783c
000000f0: 21d5 84bd 9be4 dc3d f30d f03c eb81 f33d
00000100: 04b4 93bd db9b 64bd 4932 62bd 1c14 ba3d
00000110: 763e 83bd 2c50 863d 24b1 59bc a31b 3c3d
00000120: 29d0 b8ba 5203 9dbd 43b7 703d cdd7 a2bd
00000130: 388f d5bc b2ce 573d 95bd 48bd 5a4c 02bd
00000140: 17d7 55bc 8505 353d 509d 00bd b512 cfbc
00000150: ca73 873d 2d93 9cbd d16f 8fbc fcd6 893d
00000160: 4411 30bd f9b0 b83d 4754 5b3b 0259 303d
00000170: 917f cebb 00b0 8a3d bec7 00bc 79f3 ecbb
00000180: 4754 5bbd af10 f53c 2b35 c23d f23b 613d
00000190: 7ca4 8c3d c195 693c acb6 383c 740e 013d
000001a0: 07a8 8fbd 538f 99bb 7726 7f3d 2ac9 573c
000001b0: c50b 6b3d 5c4c c53b 9741 fc3b f631 dbbb
000001c0: 9204 82bd cbd7 1a3c 4ac1 b4bc 7057 7bbd
000001d0: 69a6 2fbd 2d10 703d a40a 11bd 53e5 dcbc
000001e0: 960a 7e3c 07a5 65bd 8933 9b3c 30dd a2bc
000001f0: cc8f 21bd 4ad3 97bd c6a1 2d3d 21d6 863d
-0.061625473 0.034045473 -0.051507212 -0.064252846 -0.012499889 0.025454741 0.02271475 -0.06136228
-0.06763373 0.10375403 0.022319596 -0.0010251987 0.073831536 -0.049048495 0.011035517 0.023385856
-0.085642606 0.05021122 0.060518578 -0.039906595 -0.009816307 -0.016849589 0.017318834 -0.03499302
-0.071230955 -0.0076593948 0.0028489777 -0.04838848 0.061516922 -0.01924969 0.092393905 -0.021176372
-0.031502884 -0.014205867 0.048744246 0.02003796 0.0555175 0.046649475 -0.07617804 0.04529415
-0.049776487 0.012987434 -0.06086833 0.016561657 -0.022405317 0.10336282 0.06847049 0.018017763
-0.06852479 -0.027876442 -0.010866299 -0.030881448 -0.002399409 -0.08739882 0.035669666 -0.06728129
-0.056324933 0.009116527 0.03821321 0.015167159 -0.064859636 0.107857905 0.029303527 0.11890014
-0.0721207 -0.055812698 -0.055223737 0.09085867 -0.06408398 0.0655826 -0.0132868625 0.045924794
-0.0014100122 -0.07666649 0.058768522 -0.07951317 -0.026069269 0.052687354 -0.049008925 -0.031811096
-0.01305177 0.044194717 -0.031400025 -0.025277475 0.06613882 -0.07645259 -0.017509373 0.06730458
-0.042985216 0.0901813 0.0033466981 0.043053634 -0.006301828 0.067718506 -0.007860122 -0.0072311726
-0.05354717 0.029915182 0.09482797 0.05498881 0.068673104 0.0142568955 0.011274021 0.031507924
-0.070144705 -0.004686275 0.062292542 0.01317052 0.05738427 0.0060210656 0.0076982486 -0.0066893054
-0.06348528 0.009450863 -0.022064824 -0.061362684 -0.04288331 0.058609176 -0.03541054 -0.026964819
0.015505454 -0.056065585 0.018945472 -0.019880861 -0.039443776 -0.07413347 0.042390607 0.065838106

net.4.weight f4 [1, 128]
00000000: 9a31 a63d ec30 993d 8635 90bb 55bd 0ebd
00000010: 32d8 14bc 5547 953c c40b 1abd a77a b2bd
00000020: 6e93 9dbc 5538 ab3d 12a6 9f3c 0b2d 823d
00000030: 3897 873d f332 163b fa34 933c 167b f9bc
00000040: 2201 ddbc 4771 babc 8fd1 64bd d630 cbbc
00000050: af54 b1bc c1f5 94bc 6fdf 82bd 384e 68bc
00000060: 6b78 8f3d 1230 d9ba 4752 b63b 7a36 7b3c
00000070: a5a3 593d 8435 963d cae8 a03d fc35 3fbd
00000080: 2ce0 e33c 049f a0bc 3a55 15bc 9ca6 0bbc
00000090: 8f3a a8bc 7083 3dbd 3b92 3dbc c957 bfbc
000000a0: 0592 c83b ab39 823c 1708 bdbc ed5d 433d
000000b0: ebeb 03bc 0ab9 a13d 54fc bf3c 5bb1 963c
000000c0: 5061 79bb 3994 2fbc 7d6c 9bba 694a 29bd
000000d0: c8b4 2f3d c5e2 89b7 03ab 09bd 865d 8bbc
000000e0: d474 f2bc b5aa 9abd 1a7e 1cbd 46ae 19bd
000000f0: a036 a53d b27f a03d b40d 163d 08eb d93d
00000100: a73a b0bd d0a7 65bd a5ed 303d 1d42 6c3d
00000110: b9c1 9cba 7677 133d 7e73 53bd bbc5 3c3d
00000120: f2ea d53c c4c5 57bd 918a 14bd 5449 1f3d
00000130: d9b0 f3bc 4230 8ebd 5d0e 11bd 89ea e73c
00000140: 712e 153d 5143 5e3b 1583 c6bd 4d62 763d
00000150: 100c ac3d bb09 6cbd 800e 15bd 1b90 f53b
00000160: 43ea fcbb 87f5 863d 8e66 8cbd 16cf c93c
00000170: f1e3 8f3d 6582 a53d 1e7b 733d 3438 b13d
00000180: 656e 42bd 3e45 003d ebe6 ee3c 244b 20bd
00000190: 3593 7abd 54f5 42bd 0be5 a3bc cac3 923d
000001a0: 8ea4 b43d c854 7c3d 0346 c83c 3234 23bb
000001b0: ac62 63bd 4d17 1cbd 690f 44bd 3d7e 53bc
000001c0: cba7 a8bd 2597 8fbd d0a8 01bd 4138 92bd
000001d0: 9de1 1c3d 6d7b e6bc c786 813d f973 30bd
000001e0: 3363 793d 4d94 663d 5f41 7a3d 03e6 da3b
000001f0: 9d61 5fbd 9468 83bc f4b3 493c c7b8 45bd
0.081149295 0.07480034 -0.0044009117 -0.03484853 -0.009084748 0.01822249 -0.037608877 -0.087148
-0.019235339 0.08360354 0.019488368 0.063562475 0.066206396 0.0022918552 0.017969597 -0.0304542
-0.02697808 -0.022759093 -0.055863913 -0.02480356 -0.021646826 -0.01818359 -0.06390273 -0.014178805
0.0700539 -0.0016570112 0.0055640074 0.015332812 0.05313458 0.07334426 0.07856901 -0.046682343
0.027816854 -0.019607075 -0.009114558 -0.0085236095 -0.020535735 -0.046267927 -0.011570509 -0.023357289
0.0061209225 0.015896639 -0.023075147 0.047696996 -0.008051853 0.078966215 0.02343575 0.018395117
-0.0038052388 -0.010716491 -0.0011857894 -0.04133073 0.042897016 -1.643727e-05 -0.033610355 -0.017012369
-0.029596724 -0.07552091 -0.038206197 -0.037519716 0.080670595 0.07836856 0.036634162 0.10640532
-0.08604937 -0.05606824 0.043195385 0.057680238 -0.0011959589 0.0360026 -0.051623814 0.046087008
0.026113007 -0.05267884 -0.03626496 0.03888829 -0.029747413 -0.06942798 -0.03541409 0.028310077
0.036421243 0.0033914635 -0.09692971 0.06015234 0.08400738 -0.057626467 -0.03639078 0.0074939854
-0.007718356 0.065897994 -0.06855498 0.02463488 0.07025898 0.080815114 0.059443586 0.08653298
-0.04746856 0.031316034 0.029162845 -0.03913416 -0.061175544 -0.047597244 -0.020006677 0.0716625
0.08820449 0.06160429 0.024447447 -0.0024902937 -0.055514023 -0.03810816 -0.04786626 -0.0129085155
-0.08235129 -0.070112504 -0.031655133 -0.07139636 0.0383011 -0.028135026 0.06324535 -0.04307935
0.06088562 0.056293774 0.0610975 0.0066802516 -0.05453645 -0.016041078 0.012310971 -0.04827192

net.0.weight f4 [128, 35]
00000000: 9e02 c7bb f7be a53d 6dc3 13be 73b3 fabd
00000010: 978d acbd aaa8 393d 8b7b 5bbb 443d 093e
00000020: 94c4 75bc 6034 373d c13c 51bd 9517 08bd
00000030: e55b 25be 0044 e5bd 8fb3 8ebd 522d cd3b
00000040: f0da 883d 87b6 cf3d b6af eabd 15bf 96bd
00000050: 3779 7b3d d7ba 0f3e 5f7c 0ebd 0286 013e
00000060: d230 dfbc 5785 923c 08ba 1c3e 7791 20be
00000070: 2fee d9bd 6f47 2fbd 67f0 86bd 3d8c 153e
00000080: 3165 e5bd 592b 97bd 5987 07be 6a1b 22be
00000090: 9313 cabd 27c9 143e 4078 9a3d 17c8 a73d
000000a0: aba5 113c 727a b1bd 2845 ea3c 689c 21be
000000b0: 6e22 fabd b476 b2bd 416a da3d 48f8 ca3d
000000c0: e786 99bd 6dda c7bb 6966 dd3d 7512 2c3e
000000d0: 0964 893d 2c10 bb3c 101b e83d 29d4 cbbd
000000e0: ee03 013d 1d32 06be e1ed efbd 12d4 b2bd
000000f0: 8ba2 9c3d cb37 8b3d c70e cdbd f929 513d
00000100: 5d0a be3d f5c5 aebc e47a d33b bc6b 203d
00000110: 4cc2 d63d 32d7 103e a862 05be b7b9 7dbd
00000120: de0c 883d 5f69 0f3e 419f 163e 9ab9 183e
00000130: acc9 093d 9383 16be 9fc3 7e3c ac91 d8bd
00000140: 484f 21be 7ac9 193e dd9b 033e e2a8 2cbe
00000150: b196 013d 4644 e9bc 31de e3bc cd76 9ebd
00000160: b11f 853d 700a cdbd 44cf 7d3d 4710 af3d
00000170: 25d1 f73d 5270 813d 964f 2bbe 1190 e0bd
00000180: b8d9 ac3d ede8 103d da05 07be 9c55 c7bd
00000190: ffd4 223e 4f42 e93d ebf0 96bd 0941 2ebd
000001a0: 06e2 24be 441c 47bb 5c58 02be 2483 05be
000001b0: ca97 18bc ede7 cf3c ebc4 8dbd 9f69 cd3d
000001c0: 40a9 d2bd f40d 1d3e da3b ed3d 39f6 11be
000001d0: ad50 2cbd e1ec f93b 8207 ca3c 2b35 243d
000001e0: 53d9 873d 3ae3 253c a8e8 a8bd 68ce a33d
000001f0: b908 26be 2b2e cdbd e350 2dbd 66a0 a8bd
00000200: 0f35 72bd c8dd 0dbe fe45 13bd 8dfe 133d
00000210: 7285 e1bd b81f 0ebc 4ecf f73d fb58 8ebc
00000220: 83ef 993b c8e9 6ebc 1b7a 963d 98c0 373e
00000230: e4a4 273e 60c2 d93d a47e 283e 7ac1 77bb
00000240: ccb2 22be 201d a4bd 65b6 eb3d ea9e 8fba
00000250: ab10 acbd 99a3 04be 00fc 21be 5c16 12be
00000260: 216f 0cbd 34d8 bd3d 1128 bb3d 62ee 26be
00000270: 17f0 d73d 5371 07be b75e 12bd 545d 8cbd
00000280: 755b 05bd 1df0 07bd f451 1bbe 4c73 15be
00000290: 60ad d8bc f241 0f3b 3942 9dbd 6767 823d
000002a0: f8c9 1bbe 36e6 3abc 7237 183e bb33 8dbd
000002b0: fd4d 253e a112 b93d 03ec 21be 2c06 db3d
000002c0: 6cc9 9fbc f388 9abd fa68 0a3e 0adf 0bbe
000002d0: d095 943c ddf4 10bd 4435 f73d 0c44 413d
000002e0: ca56 a63d 7d82 743d 247e 26bd e59a 11bd
000002f0: 65a3 0ebe af92 bb3d 816d 093e 95dc ec3d
00000300: 382f f4bd ae07 f73b db07 f4bd 5f90 bebd
00000310: dab7 c9bd 779b 6c3d 544a cebd b3ae 71bb
00000320: cd01 e93b 0a27 df3d 23d7 02be 4ba7 edbd
00000330: b702 c9bd b04c f23d 2fe0 78bd cdac 253e
00000340: 8896 8a3d 60a2 3c3d 86ec a4ba 69dd 08bd
00000350: bcbb ad3c 3218 1ebd 10ac 9bba 9dad b03c
00000360: d763 07be f870 b5bd 58c4 0b3e fa77 0cbe
00000370: 34dc 46bc 9639 2b3e 441a 7a3d 02d2 9c3b
00000380: daff 15be cf7c ab3d ec92 f6bd 9588 44bd
00000390: 7b4b 68bd 840e cdbc 0e57 f23a 92c3 0e3e
000003a0: 4add ac3c 8708 1b3e 79c2 d33d 55db dabd
000003b0: d042 9b3d bab5 f4bd beb7 92bd cea2 4b3d
000003c0: ce9b 643d ecda 013e e9e0 5ebd ac48 7a3c
000003d0: b5c1 0a3e c110 32be 7b91 ec3d 7f28 1abe
000003e0: 2c58 41bc c3a6 ffbc 3452 b6bd 6f04 b73c
000003f0: 1e21 0f3e 3563 4abd ac85 cdbd 6e07 80bd
-0.00607331 0.08093064 -0.14430018 -0.122412585 -0.084254436 0.045326866 -0.0033490385 0.13402277
-0.015000481 0.044727683 -0.05108333 -0.033225615 -0.16148336 -0.111946106 -0.06967842 0.006261506
0.06682384 0.10142236 -0.114592955 -0.07360665 0.061394896 0.14036117 -0.03478658 0.12648776
-0.027244959 0.017885847 0.1530534 -0.1568049 -0.10641133 -0.042792734 -0.06588822 0.14604278
-0.11200941 -0.07381315 -0.13235225 -0.1583077 -0.09867015 0.14529859 0.07542467 0.08192461
0.008889596 -0.08665933 0.02859743 -0.1578232 -0.12213598 -0.08714047 0.106647976 0.09910637
-0.07496434 -0.0060990364 0.10810549 0.16803916 0.06708533 0.02283486 0.11333287 -0.09952576
0.03149789 -0.13105054 -0.11715294 -0.087318555 0.0764819 0.06797751 -0.10012584 0.05106542
0.092793204 -0.021334628 0.0064538587 0.039165244 0.10486278 0.1414459 -0.13025916 -0.06194469
0.06643079 0.1400504 0.14709188 0.14914551 0.033639595 -0.14698629 0.015549569 -0.1057466
-0.157529 0.15018263 0.12852426 -0.16861299 0.03163785 -0.028474938 -0.02781591 -0.07737503
0.06500185 -0.100117564 0.061965242 0.085480265 0.12100438 0.063202515 -0.16729578 -0.109649785
0.08439964 0.035378385 -0.13185826 -0.097331256 0.15901564 0.113896005 -0.0737017 -0.04254249
-0.16101846 -0.0030381838 -0.12729019 -0.13038307 -0.009313533 0.025379146 -0.06922325 0.10029911
-0.10286188 0.15337354 0.115836814 -0.14254083 -0.042069126 0.007627115 0.024661783 0.040089767
0.06633248 0.010124976 -0.08247501 0.07998353 -0.16214265 -0.100185715 -0.042313468 -0.082337186
-0.059132632 -0.13854134 -0.03595542 0.03613143 -0.11011781 -0.0086745545 0.12100087 -0.017376414
0.0046977415 -0.014582105 0.073475085 0.17944562 0.16371495 0.10632777 0.1645456 -0.003780453
-0.15888518 -0.08013368 0.11509398 -0.0010957394 -0.08401617 -0.12953033 -0.15818787 -0.14266342
-0.03428567 0.09269753 0.091385014 -0.16301873 0.105438404 -0.13226824 -0.03573486 -0.068537384
-0.032557923 -0.033187974 -0.15167981 -0.14594764 -0.02644986 0.0021859375 -0.076786466 0.06367379
-0.15213764 -0.011407426 0.148649 -0.068946324 0.16143031 0.09036756 -0.15812688 0.106945366
-0.019505225 -0.07545652 0.13516608 -0.13659301 0.018137842 -0.03538977 0.120707065 0.047184035
0.081220224 0.059694756 -0.04064764 -0.03554811 -0.13929518 0.09158837 0.13420679 0.1156551
-0.11923069 0.0075387573 -0.11915561 -0.0930488 -0.0984952 0.05776545 -0.10072771 -0.003687781
0.0071108104 0.10896118 -0.1277738 -0.11604174 -0.09814971 0.11831033 -0.060760673 0.161792
0.06766993 0.04605329 -0.0012582697 -0.03341428 0.021207683 -0.038597293 -0.001187684 0.02156716
-0.1322168 -0.08859438 0.13649118 -0.13717642 -0.012137461 0.16721186 0.061060205 0.004785777
-0.14648381 0.08373415 -0.12039742 -0.047981817 -0.05671261 -0.025031336 0.0018489079 0.13941792
0.021101613 0.15139972 0.10339827 -0.106863655 0.07581103 -0.11948724 -0.07163952 0.04971581
0.05581265 0.12681168 -0.05441371 0.015276115 0.13550456 -0.17389204 0.11551186 -0.1505451
-0.011800807 -0.031207448 -0.08902398 0.022340981 0.13977477 -0.049411017 -0.100352615 -0.06251417

net.0.bias f4 [128]
00000000: a1f0 e5ba e1b4 20be dbef c9bd 0e24 513c
00000010: 2151 f33c c1c0 a63d 5cde a03c adf9 9dbd
00000020: 5f71 c73d 604b 28be cc58 e23d 4106 d0bc
00000030: 9b3f ea3d b683 123e 4adb a53c 9ecd 4d3d
00000040: b27d b9bd 8806 283e 53c0 cc3d 821f 2bbd
00000050: 9189 6c3d b2a7 92bc d092 2d3e 2b45 603d
00000060: 688c 0f3e e7c6 19be c5a6 393e eb56 353d
00000070: f785 f73d 21bc a93d b2f6 0d3e 9690 333e
00000080: 2424 4b3c 46d3 1bbe 3423 203e dc47 bebc
00000090: 33ff 9fbd 79bd e23d 649d df3d 8bd7 c43c
000000a0: 04bc 1ebd a2f4 fabc 7b16 2c3e 961a e03d
000000b0: cb5d 0a3e 1521 d53d d554 a9bd 368f 103d
000000c0: 70bd 11be c710 b63d 1c43 2fbe 05fc 2cbe
000000d0: 48c1 30be b8c9 f83d f0eb 063d 70e2 a43c
000000e0: ac13 a83c 80a7 9abd 61d7 3cbd e666 e9bc
000000f0: c73d 27bd 1618 dcbd cab8 d83b 3a6e 123e
00000100: 1517 0fbe c53e 153e 7dea 06be fb2c c2bd
00000110: 1595 bf3c 9fb9 8d3c 7b89 033e 3f8b f3bb
00000120: b4b4 a0bd 8985 f0bc c188 f6ba d373 05be
00000130: 7697 06be bd55 8ebd 0c57 e8ba 3ede eebd
00000140: b0aa f0bd 9018 1a3e 6fb6 233e 2d2b 96bd
00000150: a262 1abe 02cf 88bd 5225 743d fedf 883d
00000160: 3ea5 58bd 73ae 29be 4f7a 15bd 81c0 013c
00000170: 2c1e d23d 7ea1 b9bd cb4e b03d 53d4 2f3d
00000180: 8b21 d13c c0ed 15be 386f 403e 6b2b 2cbd
00000190: 4c9d 023e c410 b3bd ce45 38be f0f0 06be
000001a0: e068 b1bd 771f 9ebd 6b1f 15bd 4d04 203e
000001b0: 04b7 23be a39a ec3d a03c 1a3e 6a11 18bc
000001c0: 2c67 69bd ee5f c6b9 1825 0a3d 2bb8 c93d
000001d0: 8cf0 80bd f553 83bd e327 c3bc aa69 27be
000001e0: 69a2 ac3d 56db 02be 5f57 9ebd 29f6 58bb
000001f0: 1d96 fa3d aa67 143e 45cb fbbd de22 323e
-0.0017543026 -0.15694 -0.09860202 0.012764944 0.029701771 0.08142234 0.01963728 -0.077136375
0.09738421 -0.16435003 0.11052093 -0.025393607 0.11437913 0.14308056 0.020246167 0.05024492
-0.090571776 0.16408741 0.099976204 -0.041778095 0.05774838 -0.017902229 0.16950536 0.054753464
0.14018404 -0.15017281 0.18130024 0.044272345 0.12086099 0.08287836 0.13863638 0.17535624
0.012398753 -0.15217313 0.15638429 -0.023227625 -0.07812347 0.11071295 0.10918692 0.02402856
-0.038753524 -0.030634228 0.1680545 0.10942571 0.13512342 0.104067005 -0.082681336 0.035292827
-0.14232421 0.08889919 -0.17115444 -0.16893013 -0.17261231 0.1214785 0.03293985 0.020127505
0.020517193 -0.07551479 -0.04610384 -0.028491449 -0.0408304 -0.107467815 0.0066138254 0.1429986
-0.13973649 0.14574726 -0.13175388 -0.094812356 0.023386518 0.017300425 0.12845413 -0.007432371
-0.078469664 -0.02936055 -0.0018809066 -0.13032465 -0.13143715 -0.06949947 -0.0017726137 -0.11663483
-0.11751306 0.15048432 0.15987562 -0.07332454 -0.15076688 -0.066801086 0.059605904 0.06683348
-0.052891962 -0.16570453 -0.036493596 0.007919432 0.10259661 -0.09064005 0.086087786 0.042927098
0.02552869 -0.14641476 0.18792427 -0.042033594 0.12755316 -0.08743432 -0.17995378 -0.13177848
-0.086625814 -0.07720845 -0.036406916 0.1562664 -0.15987784 0.11552932 0.15062189 -0.009281496
-0.056983158 -0.00037836976 0.03372678 0.098495804 -0.06295881 -0.06412498 -0.02382273 -0.16348901
0.08429415 -0.12778983 -0.077315085 -0.0033105707 0.12235663 0.1449267 -0.1229463 0.17396113

net.2.weight f4 [128, 128]
00000000: dd0b a43d e43b 923d a928 fc3b 8b62 913d
00000010: 825c 343d 64e4 81bd 84d2 3ebd 86d3 333b
00000020: e248 80bd f36c eebc a35f 943d 6a65 2d3d
00000030: 60a5 9d3d 0494 ac3a 6c0b 37bd 24f7 733d
00000040: bd85 d53b eadf 733c 6c1e 14bd 07b7 143d
00000050: 1fba 83bd fd72 903d 0b5d 9e3d d73c 073d
00000060: e420 8f3d 5dec 5f3d 3edc 05bd 0e01 9dbd
00000070: 1790 3e3c 12ef 673d fb25 14bc a1c3 0a3c
00000080: 982b 863d a87b 153d 038d 893d a9a4 543c
00000090: f554 273c f5fd a4bc c55f 74bc 4a92 3bbd
000000a0: f60c 723d 3819 a53d a5a3 0a3d 1497 243b
000000b0: 8705 efbc caa1 b0bd 2346 87bc ba81 80bd
000000c0: eba2 83bd 8fca 85bc cb77 85bc a510 923c
000000d0: a6ba 80bd 2744 843d ba95 a2bd 8a56 41bd
000000e0: d972 09bd b1f5 e53b 5fec 193d 47d1 bebc
000000f0: 113a 673c 680c a2bc b964 0ebd 3590 4abc
00000100: 7ec9 913c 54d5 afbd 3434 77bd c33e 8f3d
00000110: 01e8 273d 6ce1 1abb 56c6 823b 2b87 5a3c
00000120: 5898 b03c 7b2d 77bd 5f96 b8bc 8de3 a3bd
00000130: 9546 8cbd fab3 7fbc bb35 3fbc e1af 8f3d
00000140: 1e70 793c e6cf 6abc 427b 20bb 352d 4f3d
00000150: 67b2 d3bc 20c9 7bbc 4441 91bc eca0 8fbd
00000160: da87 39bc 8157 a7bd cfe8 3ebd 4f71 66bd
00000170: 15ed 883d 8dc0 a6bd cdd9 b03d 61cc 0b3d
00000180: cea9 74bd d36e 973d 0dfe 96bc 1852 99bd
00000190: bd1b 49bc 55ec 323d 4201 aebd af0d b8bb
000001a0: b34e 133d 7a56 08bd f176 163c dfd3 09bd
000001b0: 12aa 6ebd 7bc3 8d3d 1ed9 7abd e6f8 f938
000001c0: 3a29 f13c ddd1 45bd adce 2e3d 4154 96bd
000001d0: 9656 af3d 70bb 253d 5a05 4dbc 3994 96bd
000001e0: eb20 123b 216b 003d 2f88 40bd 5932 29bc
000001f0: 8f0c b2bd 2ff7 b4bd b446 1dbc 9677 973d
00000200: 4d66 54bb c501 e33c 6bb6 10bd 9765 c83c
00000210: 698c 0cbc 7b31 beba 2c2c d93d 542d 663d
00000220: 7f72 d2bc a216 de3c 443d 10bd 2840 4bbd
00000230: 6295 cc3c 5af3 d2bc 8d71 4cbd 32af 673c
00000240: fad2 8e3d f8eb 033d 8512 9dbb 40ab f0ba
00000250: ea72 17bd 97d9 873d c064 033e 805c e3bb
00000260: 8e09 ea3b b2ee 933d 2ae1 963d bb1b ecbc
00000270: dff7 f1ba ae30 afbd 7aa9 d53d 6480 8f3d
00000280: aa8f 943c 8045 cd3c f529 b93c b140 0cbd
00000290: ddcc 113d dffb 353d 5f66 4c3d 59bc 283c
000002a0: 00f2 033d 425a cb3d a48e a23d dd6b 5c3d
000002b0: 1ef7 9f3d 82af b4bc 69a3 573d 9268 0ebd
000002c0: 2838 93bd 0aa3 2e3d d6bd 0a3d 0460 9f3c
000002d0: 0ef8 1e3d 67d9 3d3c bbb9 ff3c c1e3 a53d
000002e0: fc87 afbc e271 4cbb 023b 6b3c cb06 183d
000002f0: 9784 97bd 0606 1c3c 933e b13d 6aec 0dbb
00000300: f2b9 b13d b795 953d 68c6 1e3d bbbb 07bd
00000310: ffee 91bd 3013 2ebd 2002 823b 274e 20bd
00000320: 4b51 a33d 643d 1abc b6ba 6cbd fcdc f7bc
00000330: 3d6e a43d 6558 21bd 6621 c93d c031 323d
00000340: d843 cebb 9db0 ac3d e90c ae3d a423 33bd
00000350: 4d77 8dbc 84c3 b13d 52b4 993d d105 2cbd
00000360: 1d4d babc 708e 0a3d f283 3b3d 03a9 733d
00000370: 41b2 64bd 1d72 96bd cc61 8ebc 6044 093d
00000380: 3b70 073d cfe5 95bd 7bc2 a8bc 2841 b23d
00000390: 26c7 dcbc fe7c 8cbd 8590 673d d02a b63d
000003a0: 4722 aebd 2b50 a1bd 0c17 d9bc d2c5 b63d
000003b0: 7e45 49bd 043f 643d 6d62 973d 92c1 f6bc
000003c0: a756 b73c 2f87 6ebd ad78 473d fd07 003e
000003d0: 12fa 183d 5b79 813d e0f7 3d3d d205 66bc
000003e0: 4ded a73c d47c 4e3d 6b98 2dbc 35dc 98bd
000003f0: 0b78 f4bc 34b1 903d 2f7d b03d 08b6 143d
0.08010075 0.071403295 0.0076952768 0.07098874 0.044033535 -0.0634239 -0.046587482 0.002743931
-0.06263901 -0.029104685 0.07244804 0.042333044 0.076975584 0.0013166671 -0.044688627 0.059561864
0.006516187 0.014884928 -0.036161825 0.03630736 -0.06431984 0.07053182 0.0773259 0.033017006
0.06988695 0.054668773 -0.032680742 -0.07666217 0.011631033 0.05662448 -0.009042258 0.008469493
0.065512836 0.03649488 0.06716349 0.012978711 0.010213126 -0.020140627 -0.014915411 -0.04579381
0.05909439 0.08061451 0.03384747 0.0025114464 -0.02917744 -0.08624609 -0.016512936 -0.062747434
-0.064275585 -0.016331939 -0.016292473 0.017830202 -0.062856 0.064583115 -0.07938714 -0.04720167
-0.033556793 0.007017814 0.037578937 -0.02329315 0.014112965 -0.019781306 -0.034764025 -0.012363483
0.017796274 -0.08585611 -0.06035252 0.06994393 0.04099274 -0.0023632897 0.0039909286 0.013337891
0.021557018 -0.060346108 -0.02253264 -0.08002386 -0.068494 -0.015606875 -0.011670525 0.07015968
0.015224485 -0.014331793 -0.002448753 0.050580222 -0.025841905 -0.015367776 -0.017731316 -0.07013115
-0.011323893 -0.08170987 -0.046608742 -0.056260403 0.06685845 -0.08142195 0.08635292 0.034130458
-0.05973225 0.07394185 -0.018431688 -0.07486361 -0.01227468 0.043682415 -0.08496334 -0.0056168656
0.035963725 -0.033285595 0.009183631 -0.03364932 -0.05826766 0.069220506 -0.061242215 0.00011919606
0.029438604 -0.048295844 0.04267757 -0.07340289 0.08561437 0.040461957 -0.012513483 -0.0735249
0.0022297453 0.031352166 -0.047004875 -0.010326945 -0.086938016 -0.08836209 -0.0095993765 0.07395856
-0.0032409609 0.027710805 -0.035330217 0.024462504 -0.008578398 -0.0014510596 0.10604128 0.056195572
-0.025689362 0.027110402 -0.035214677 -0.04962173 0.024973575 -0.025750805 -0.049912978 0.014140891
0.06973834 0.03220746 -0.0047934675 -0.0018361583 -0.036974825 0.06633299 0.12831402 -0.006938517
0.0071422523 0.07223262 0.073671654 -0.028821817 -0.0018460712 -0.08554207 0.10432716 0.070069104
0.01813491 0.025057554 0.022603014 -0.034241382 0.035595763 0.044429656 0.049902316 0.010298812
0.03221321 0.09929325 0.07937363 0.053813804 0.07810806 -0.022056345 0.052646074 -0.034767695
-0.07188445 0.042635955 0.033872448 0.019454964 0.038810782 0.011587477 0.031216493 0.08100081
-0.021427147 -0.003119581 0.01435733 0.037115853 -0.073983364 0.0095229205 0.08654513 -0.0021655806
0.086780444 0.073039465 0.038763434 -0.033138018 -0.07125663 -0.042498767 0.0039675385 -0.039137032
0.0797449 -0.009414051 -0.05779525 -0.03025674 0.08028839 -0.03939094 0.09820823 0.043504477
-0.0062947087 0.08432124 0.08498556 -0.04373516 -0.017268801 0.0867987 0.075050965 -0.041997734
-0.022741849 0.033827245 0.04578013 0.059487354 -0.05583406 -0.07345984 -0.017380618 0.033512473
0.033066016 -0.07319223 -0.020600548 0.08703834 -0.02695043 -0.06859778 0.05653431 0.088948846
-0.08502632 -0.07876619 -0.026500247 0.0892445 -0.04913854 0.05572416 0.0739182 -0.030121598
0.022380186 -0.05823439 0.04869907 0.12503047 0.03734786 0.06321975 0.04637897 -0.014039474
0.020498896 0.050412014 -0.010595421 -0.07463876 -0.029842397 0.07065049 0.08617627 0.03630641

net.2.bias f4 [128]
00000000: fe6a 7cbd 4473 0b3d 3af9 52bd ff96 83bd
00000010: 56cc 4cbc 7686 d03c 4914 ba3c 0457 7bbd
00000020: 8e83 8abd fe7c d43d 96d7 b63c f65f 86ba
00000030: fd34 973d 13e7 48bd 50ce 343c b293 bf3c
00000040: 6465 afbd 48aa 4d3d 54e2 773d 1975 23bd
00000050: 93d4 20bc 2608 8abc 3ae0 8d3c d754 0fbd
00000060: 89e1 91bd a9fb fabb eab5 3a3b 0033 46bd
00000070: 2bf9 7b3d 87b1 9dbc 0439 bd3d 127a adbc
00000080: 2b09 01bd babf 68bc 0ca8 473d a626 a43c
00000090: 5166 633d 8513 3f3d 3b03 9cbd 5c86 393d
000000a0: 6ee2 4bbd 3fc9 543c 1251 79bd 50ac 873c
000000b0: 5b8b b7bc e3af d33d 423a 8c3d fd99 933c
000000c0: ba56 8cbd 235d e4bc 9008 32bc 17fb fcbc
000000d0: 673f 1dbb 27fe b2bd 5b1a 123d c6ca 89bd
000000e0: f9b4 66bd 7c5d 153c 7485 1c3d ad7f 783c
000000f0: 21d5 84bd 9be4 dc3d f30d f03c eb81 f33d
00000100: 04b4 93bd db9b 64bd 4932 62bd 1c14 ba3d
00000110: 763e 83bd 2c50 863d 24b1 59bc a31b 3c3d
00000120: 29d0 b8ba 5203 9dbd 43b7 703d cdd7 a2bd
00000130: 388f d5bc b2ce 573d 95bd 48bd 5a4c 02bd
00000140: 17d7 55bc 8505 353d 509d 00bd b512 cfbc
00000150: ca73 873d 2d93 9cbd d16f 8fbc fcd6 893d
00000160: 4411 30bd f9b0 b83d 4754 5b3b 0259 303d
00000170: 917f cebb 00b0 8a3d bec7 00bc 79f3 ecbb
00000180: 4754 5bbd af10 f53c 2b35 c23d f23b 613d
00000190: 7ca4 8c3d c195 693c acb6 383c 740e 013d
000001a0: 07a8 8fbd 538f 99bb 7726 7f3d 2ac9 573c
000001b0: c50b 6b3d 5c4c c53b 9741 fc3b f631 dbbb
000001c0: 9204 82bd cbd7 1a3c 4ac1 b4bc 7057 7bbd
000001d0: 69a6 2fbd 2d10 703d a40a 11bd 53e5 dcbc
000001e0: 960a 7e3c 07a5 65bd 8933 9b3c 30dd a2bc
000001f0: cc8f 21bd 4ad3 97bd c6a1 2d3d 21d6 863d
-0.061625473 0.034045473 -0.051507212 -0.064252846 -0.012499889 0.025454741 0.02271475 -0.06136228
-0.06763373 0.10375403 0.022319596 -0.0010251987 0.073831536 -0.049048495 0.011035517 0.023385856
-0.085642606 0.05021122 0.060518578 -0.039906595 -0.009816307 -0.016849589 0.017318834 -0.03499302
-0.071230955 -0.0076593948 0.0028489777 -0.04838848 0.061516922 -0.01924969 0.092393905 -0.021176372
-0.031502884 -0.014205867 0.048744246 0.02003796 0.0555175 0.046649475 -0.07617804 0.04529415
-0.049776487 0.012987434 -0.06086833 0.016561657 -0.022405317 0.10336282 0.06847049 0.018017763
-0.06852479 -0.027876442 -0.010866299 -0.030881448 -0.002399409 -0.08739882 0.035669666 -0.06728129
-0.056324933 0.009116527 0.03821321 0.015167159 -0.064859636 0.107857905 0.029303527 0.11890014
-0.0721207 -0.055812698 -0.055223737 0.09085867 -0.06408398 0.0655826 -0.0132868625 0.045924794
-0.0014100122 -0.07666649 0.058768522 -0.07951317 -0.026069269 0.052687354 -0.049008925 -0.031811096
-0.01305177 0.044194717 -0.031400025 -0.025277475 0.06613882 -0.07645259 -0.017509373 0.06730458
-0.042985216 0.0901813 0.0033466981 0.043053634 -0.006301828 0.067718506 -0.007860122 -0.0072311726
-0.05354717 0.029915182 0.09482797 0.05498881 0.068673104 0.0142568955 0.011274021 0.031507924
-0.070144705 -0.004686275 0.062292542 0.01317052 0.05738427 0.0060210656 0.0076982486 -0.0066893054
-0.06348528 0.009450863 -0.022064824 -0.061362684 -0.04288331 0.058609176 -0.03541054 -0.026964819
0.015505454 -0.056065585 0.018945472 -0.019880861 -0.039443776 -0.07413347 0.042390607 0.065838106

net.4.weight f4 [1, 128]
00000000: 9a31 a63d ec30 993d 8635 90bb 55bd 0ebd
00000010: 32d8 14bc 5547 953c c40b 1abd a77a b2bd
00000020: 6e93 9dbc 5538 ab3d 12a6 9f3c 0b2d 823d
00000030: 3897 873d f332 163b fa34 933c 167b f9bc
00000040: 2201 ddbc 4771 babc 8fd1 64bd d630 cbbc
00000050: af54 b1bc c1f5 94bc 6fdf 82bd 384e 68bc
00000060: 6b78 8f3d 1230 d9ba 4752 b63b 7a36 7b3c
00000070: a5a3 593d 8435 963d cae8 a03d fc35 3fbd
00000080: 2ce0 e33c 049f a0bc 3a55 15bc 9ca6 0bbc
00000090: 8f3a a8bc 7083 3dbd 3b92 3dbc c957 bfbc
000000a0: 0592 c83b ab39 823c 1708 bdbc ed5d 433d
000000b0: ebeb 03bc 0ab9 a13d 54fc bf3c 5bb1 963c
000000c0: 5061 79bb 3994 2fbc 7d6c 9bba 694a 29bd
000000d0: c8b4 2f3d c5e2 89b7 03ab 09bd 865d 8bbc
000000e0: d474 f2bc b5aa 9abd 1a7e 1cbd 46ae 19bd
000000f0: a036 a53d b27f a03d b40d 163d 08eb d93d
00000100: a73a b0bd d0a7 65bd a5ed 303d 1d42 6c3d
00000110: b9c1 9cba 7677 133d 7e73 53bd bbc5 3c3d
00000120: f2ea d53c c4c5 57bd 918a 14bd 5449 1f3d
00000130: d9b0 f3bc 4230 8ebd 5d0e 11bd 89ea e73c
00000140: 712e 153d 5143 5e3b 1583 c6bd 4d62 763d
00000150: 100c ac3d bb09 6cbd 800e 15bd 1b90 f53b
00000160: 43ea fcbb 87f5 863d 8e66 8cbd 16cf c93c
00000170: f1e3 8f3d 6582 a53d 1e7b 733d 3438 b13d
00000180: 656e 42bd 3e45 003d ebe6 ee3c 244b 20bd
00000190: 3593 7abd 54f5 42bd 0be5 a3bc cac3 923d
000001a0: 8ea4 b43d c854 7c3d 0346 c83c 3234 23bb
000001b0: ac62 63bd 4d17 1cbd 690f 44bd 3d7e 53bc
000001c0: cba7 a8bd 2597 8fbd d0a8 01bd 4138 92bd
000001d0: 9de1 1c3d 6d7b e6bc c786 813d f973 30bd
000001e0: 3363 793d 4d94 663d 5f41 7a3d 03e6 da3b
000001f0: 9d61 5fbd 9468 83bc f4b3 493c c7b8 45bd
0.081149295 0.07480034 -0.0044009117 -0.03484853 -0.009084748 0.01822249 -0.037608877 -0.087148
-0.019235339 0.08360354 0.019488368 0.063562475 0.066206396 0.0022918552 0.017969597 -0.0304542
-0.02697808 -0.022759093 -0.055863913 -0.02480356 -0.021646826 -0.01818359 -0.06390273 -0.014178805
0.0700539 -0.0016570112 0.0055640074 0.015332812 0.05313458 0.07334426 0.07856901 -0.046682343
0.027816854 -0.019607075 -0.009114558 -0.0085236095 -0.020535735 -0.046267927 -0.011570509 -0.023357289
0.0061209225 0.015896639 -0.023075147 0.047696996 -0.008051853 0.078966215 0.02343575 0.018395117
-0.0038052388 -0.010716491 -0.0011857894 -0.04133073 0.042897016 -1.643727e-05 -0.033610355 -0.017012369
-0.029596724 -0.07552091 -0.038206197 -0.037519716 0.080670595 0.07836856 0.036634162 0.10640532
-0.08604937 -0.05606824 0.043195385 0.057680238 -0.0011959589 0.0360026 -0.051623814 0.046087008
0.026113007 -0.05267884 -0.03626496 0.03888829 -0.029747413 -0.06942798 -0.03541409 0.028310077
0.036421243 0.0033914635 -0.09692971 0.06015234 0.08400738 -0.057626467 -0.03639078 0.0074939854
-0.007718356 0.065897994 -0.06855498 0.02463488 0.07025898 0.080815114 0.059443586 0.08653298
-0.04746856 0.031316034 0.029162845 -0.03913416 -0.061175544 -0.047597244 -0.020006677 0.0716625
0.08820449 0.06160429 0.024447447 -0.0024902937 -0.055514023 -0.03810816 -0.04786626 -0.0129085155
-0.08235129 -0.070112504 -0.031655133 -0.07139636 0.0383011 -0.028135026 0.06324535 -0.04307935
0.06088562 0.056293774 0.0610975 0.0066802516 -0.05453645 -0.016041078 0.012310971 -0.04827192

exp_avg f4 [128, 35]
00000000: 048d d139 8c46 d33d 7bf0 e038 fbf2 2f38
00000010: 8952 8339 0000 0000 0000 0000 0000 0000
00000020: 0000 0000 0000 0000 0000 0000 0000 0000
00000030: 0000 0000 0000 0000 0000 0000 0000 0000
00000040: 0000 0000 0000 0000 0000 0000 0000 0000
00000050: 0000 0000 0000 0000 0000 0000 0000 0000
00000060: 0000 0000 0000 0000 0000 0000 0000 0000
00000070: 0000 0000 0000 0000 0000 0000 0000 0000
00000080: 56fc 7737 452f 8039 b93b 1339 0000 0000
00000090: 0000 0000 0000 0000 0000 0000 0000 0000
000000a0: 0000 0000 0000 0000 0000 0000 0000 0000
000000b0: 0000 0000 0000 0000 0000 0000 0000 0000
000000c0: 0000 0000 0000 0000 0000 0000 0000 0000
000000d0: 0000 0000 0000 0000 0000 0000 0000 0000
000000e0: 0000 0000 0000 0000 0000 0000 0000 0000
000000f0: 0000 0000 0000 0000 0000 0000 0000 0000
00000100: 0000 0000 0000 0000 0000 0000 0000 0000
00000110: 0000 0000 0b69 b534 0000 0000 0000 0000
00000120: 0000 0000 0000 0000 0000 0000 0000 0000
00000130: 0000 0000 0000 0000 0000 0000 0000 0000
00000140: 0000 0000 0000 0000 0000 0000 0000 0000
00000150: 0000 0000 0000 0000 0000 0000 0000 0000
00000160: 0000 0000 0000 0000 0000 0000 0000 0000
00000170: 0000 0000 0000 0000 0000 0000 0000 0000
00000180: 0000 0000 0000 0000 0000 0000 0000 0000
00000190: 0000 0000 0000 0000 0000 0000 0000 0000
000001a0: 0000 0000 0000 0000 0000 0000 0000 0000
000001b0: 0000 0000 0000 0000 0000 0000 0000 0000
000001c0: 0000 0000 0000 0000 0000 0000 0000 0000
000001d0: 0000 0000 0000 0000 0000 0000 0000 0000
000001e0: 0000 0000 0000 0000 0000 0000 0000 0000
000001f0: 0000 0000 0000 0000 0000 0000 0000 0000
00000200: 0000 0000 0000 0000 0000 0000 0000 0000
00000210: 0000 0000 0000 0000 0000 0000 0000 0000
00000220: 0000 0000 0000 0000 103e 98bb 077a 65bb
00000230: d8ff 403a c4fc 4c3e 28d8 4b39 3503 0f38
00000240: a219 053a 0000 0000 0000 0000 0000 0000
00000250: 0000 0000 0000 0000 0000 0000 0000 0000
00000260: 0000 0000 0000 0000 0000 0000 0000 0000
00000270: 0000 0000 0000 0000 0000 0000 0000 0000
00000280: 0000 0000 0000 0000 0000 0000 0000 0000
00000290: 0000 0000 0000 0000 0000 0000 0000 0000
000002a0: 0000 0000 0000 0000 0000 0000 0000 0000
000002b0: 4343 a9b9 d55a 85b9 cd3d 9839 0000 0000
000002c0: 0000 0000 0000 0000 0000 0000 0000 0000
000002d0: 0000 0000 0000 0000 0000 0000 0000 0000
000002e0: 0000 0000 0000 0000 0000 0000 0000 0000
000002f0: 0000 0000 0000 0000 0000 0000 0000 0000
00000300: 0000 0000 0000 0000 0000 0000 0000 0000
00000310: 0000 0000 0000 0000 0000 0000 0000 0000
00000320: 0000 0000 0000 0000 0000 0000 0000 0000
00000330: 0000 0000 0000 0000 0000 0000 7aca 47ba
00000340: 27d2 14bb c386 d9ba 0000 0000 0000 0000
00000350: 0000 0000 0000 0000 0000 0000 0000 0000
00000360: 0000 0000 0000 0000 0000 0000 0000 0000
00000370: 0000 0000 0000 0000 0000 0000 0000 0000
00000380: 0000 0000 0000 0000 0000 0000 0000 0000
00000390: 0000 0000 0000 0000 0000 0000 0000 0000
000003a0: 0000 0000 0000 0000 0000 0000 0000 0000
000003b0: 0000 0000 0000 0000 0000 0000 0000 0000
000003c0: 0000 0000 0000 0000 0000 0000 50dc 7dbb
000003d0: 1499 5ebb b866 82b9 b738 9cbd 24d7 81b8
000003e0: 70bf e237 d639 60b9 0000 0000 0000 0000
000003f0: 0000 0000 0000 0000 0000 0000 0000 0000
0.0003996865 0.1031619 0.00010725945 4.1949545e-05 0.0002504776 0.0 0.0 0.0
0.0 0.0 0.0 0.0 0.0 0.0 0.0 0.0
0.0 0.0 0.0 0.0 0.0 0.0 0.0 0.0
0.0 0.0 0.0 0.0 0.0 0.0 0.0 0.0
1.4781099e-05 0.0002444928 0.00014041261 0.0 0.0 0.0 0.0 0.0
0.0 0.0 0.0 0.0 0.0 0.0 0.0 0.0
0.0 0.0 0.0 0.0 0.0 0.0 0.0 0.0
0.0 0.0 0.0 0.0 0.0 0.0 0.0 0.0
0.0 0.0 0.0 0.0 0.0 3.3790306e-07 0.0 0.0
0.0 0.0 0.0 0.0 0.0 0.0 0.0 0.0
0.0 0.0 0.0 0.0 0.0 0.0 0.0 0.0
0.0 0.0 0.0 0.0 0.0 0.0 0.0 0.0
0.0 0.0 0.0 0.0 0.0 0.0 0.0 0.0
0.0 0.0 0.0 0.0 0.0 0.0 0.0 0.0
0.0 0.0 0.0 0.0 0.0 0.0 0.0 0.0
0.0 0.0 0.0 0.0 0.0 0.0 0.0 0.0
0.0 0.0 0.0 0.0 0.0 0.0 0.0 0.0
0.0 0.0 -0.0046460703 -0.003501536 0.00073623424 0.20018297 0.00019440113 3.4096844e-05
0.0005077367 0.0 0.0 0.0 0.0 0.0 0.0 0.0
0.0 0.0 0.0 0.0 0.0 0.0 0.0 0.0
0.0 0.0 0.0 0.0 0.0 0.0 0.0 0.0
0.0 0.0 0.0 0.0 -0.00032284306 -0.00025435412 0.00029037744 0.0
0.0 0.0 0.0 0.0 0.0 0.0 0.0 0.0
0.0 0.0 0.0 0.0 0.0 0.0 0.0 0.0
0.0 0.0 0.0 0.0 0.0 0.0 0.0 0.0
0.0 0.0 0.0 0.0 0.0 0.0 0.0 -0.0007621419
-0.0022708268 -0.0016595948 0.0 0.0 0.0 0.0 0.0 0.0
0.0 0.0 0.0 0.0 0.0 0.0 0.0 0.0
0.0 0.0 0.0 0.0 0.0 0.0 0.0 0.0
0.0 0.0 0.0 0.0 0.0 0.0 0.0 0.0
0.0 0.0 0.0 -0.0038736053 -0.0033965753 -0.00024872064 -0.07628005 -6.1912724e-05
2.7030444e-05 -0.0002138385 0.0 0.0 0.0 0.0 0.0 0.0
