models/meta_dqn.pth (torch, 477281 bytes, 6 tensors)

q_net.0.weight f4 [256, 320]
00000000: b60d fd3c 397c 2fbd c007 9d3c a330 e43c
00000010: 7fce 353c f233 f7bc 3764 90bb c606 2b3d
00000020: 5fb5 ed3c 87f1 36bd 458e 01bc a154 d3bb
00000030: 00c7 0abd 1deb 423d 4211 acbd 727e 473d
00000040: d2d6 84bd 0e0d 213d b71d 8f3b 97dc 25bc
00000050: 51ab 4f3d c1d8 7c3d 1164 5f3d fc4e 07bd
00000060: 8ea9 f83c 17a2 313c 18ab 76bc f937 2c3c
00000070: 78cc 0ebd 4c4a 753d 78a9 2abd ff60 27bd
00000080: 1dac 17ba f3a7 013d b37d f8bb 4304 773d
00000090: 2bdb d43c 53f2 67ba 603d 813d b8d8 b3bc
000000a0: e2c8 b1bc dc30 04bd daa1 273d ac97 683a
000000b0: c828 2f3d c256 e83c bdbd 63bd ed36 d2bc
000000c0: 09cd bebb 8c84 fc3c 7acd dbbc 66f5 523a
000000d0: 4c43 313d 6cc4 f7bc 21b8 6ebd 7761 5c3d
000000e0: f063 623d 3d6b 64bc 6ded 0a3d e9aa b0bb
000000f0: c2a7 9abd 19df 70bd cd67 27bd e421 26bd
00000100: 60a4 0e3d 07d4 3c3d 7cc8 113c e6ee 1fbd
00000110: 8474 1b3d 999a 82bd 81ef f33c 789d 45bd
00000120: a2c6 493d 6f77 d43b 34ed b1bb 59c2 e6bc
00000130: e212 9cbd 3188 e6bc b5db 7dbd 555f 67bd
00000140: 72c3 063c b5d4 d63c ea19 14bd b007 f23c
00000150: a36c 13bd 53ba c7ba 766e 1f3c d61b f5bc
00000160: c47a 14bd ffa2 2b3d e6d2 0c3d f3c5 26bd
00000170: 032f 453d 77e2 933c 700a a83c 8960 d6bc
00000180: 64f1 dabc 9758 cc3c 0958 b93c f81c 56bc
00000190: 2aa6 743d 1e25 4e3d 613d 8bbd 9123 fbbc
000001a0: 260a 003d 0673 8d3c ca36 273b 0f14 01bd
000001b0: b86b 3ebc 98a8 39bd b6b6 dd3b 193b a73c
000001c0: 9cc6 e4bc 8ed3 fe3c 8654 0a3d 49c4 623c
000001d0: 19d7 423d 3b73 453d e9b0 82bd 5474 5b3c
000001e0: 6d68 e03b 6d34 96bb 3b66 f2bc dc73 813c
000001f0: e91b 583d 68aa 51bd 1777 c5bc fe52 30bd
00000200: 4140 263d 1d10 b73b a3cd 933c 6e14 4c3c
00000210: 49f4 213d d563 913b d798 d53b 07c4 e73c
00000220: c2a6 88bd c77f 453c 95b8 35bd 3bf3 2f3d
00000230: 87a6 5b3d 4365 523c 97be 77bc 3249 853d
00000240: 74a5 87bc 3dee 44bc 28e6 1a3d 8ad7 043c
00000250: c74f b2bc e199 9dbc 5e17 03bd 92e4 9cbd
00000260: e45c e53c 2aa3 00bd ab4f c6bc 638e 7c3c
00000270: a6ff c1b9 c666 9f3c 9372 78bc 4edb 14bc
00000280: 26e5 b9bb aa17 9cbc 7d05 66bd 41a1 69bd
00000290: 26b4 23bd 7011 fdbb 122b 6bbc 568a 55bd
000002a0: a21c be3c dff6 59ba c0ce e13b 383c 733b
000002b0: fce0 d2bc 8ca7 3c3d bd37 b63c 1f2a f63b
000002c0: b4bf 453d 96ce c9bb 0229 743c 9942 0b3c
000002d0: 90cd c5bc 3fa3 b5bc 0a31 10bc 55ab 723c
000002e0: 50a5 14bd 6bf3 3e3a cda9 2dbc b071 81bc
000002f0: d615 0dbd 91c0 4ebd f05b 733d e093 fe3c
00000300: cc45 8e3d b86e 09bd ba31 81bc 7f5f 83bc
00000310: 713c 7e3d bc2b 253d 4b1e 3e3d 4a83 f13c
00000320: 13f5 c0bb a0e7 54bd bd5f 093d efaa eebc
00000330: 3a00 5a3d 8f5f 573d df53 8a3c d621 e4bc
00000340: 8599 0bbd 206d 953b 2fd3 5ebd bb31 83bd
00000350: 123c 54bd 3a17 bc3c f5b3 89bd 527e afbc
00000360: 4813 8f3d 7e54 0a3b 68ad 103d 36c2 0cbd
00000370: 6d07 0bbd f917 8fbc 7f56 573d 5002 eabc
00000380: 026e 873c 5451 8a3b 3de1 d4bc fccc 37bd
00000390: 3d56 843c 0171 64bd c9a0 96bb 7b15 56bd
000003a0: 2974 1e3d 8407 463b 93b7 a43c e9ff f0bc
000003b0: 4fe3 5e3c 12f0 47bd d529 673d 9063 88bc
000003c0: 78be 2d3c f2ff 273d bc81 08bc 0499 29bc
000003d0: f89d a5bc 1116 543d ab6c 1f3d 215b 783b
000003e0: 91d3 50bd 2b58 1abd 2314 563d 11b2 9cbb
000003f0: 09e4 233d 7c13 733c d37e 0f3d a75c 6bbd
0.030890327 -0.042843077 0.019168735 0.027855223 0.011096596 -0.030176137 -0.004406478 0.041754507
0.029017149 -0.044663932 -0.007907455 -0.0064492975 -0.033881187 0.047587503 -0.08401729 0.048704572
-0.06486286 0.03931909 0.004367556 -0.0101233935 0.05070049 0.06173015 0.05453879 -0.03303431
0.030354287 0.010841868 -0.01505544 0.010511392 -0.034862965 0.05988531 -0.041665524 -0.040863987
-0.000578584 0.03165431 -0.007583344 0.0603068 0.025983414 -0.000884806 0.063105345 -0.021953925
-0.021702234 -0.03227316 0.040925838 0.00088726985 0.0427635 0.028361682 -0.05560087 -0.025660956
-0.005822782 0.030824922 -0.026831377 0.00080474315 0.04327707 -0.030245028 -0.058281068 0.053803887
0.05527109 -0.013941583 0.033917833 -0.005391468 -0.075515285 -0.058806513 -0.040870477 -0.040559664
0.03482473 0.046100643 0.008897897 -0.03904619 0.037952915 -0.063771434 0.02977729 -0.048245877
0.049261697 0.006483964 -0.005429888 -0.028168844 -0.07620789 -0.028141113 -0.061977107 -0.0564874
0.008225309 0.026224473 -0.036157526 0.029544681 -0.035992276 -0.0015238024 0.009730926 -0.0299205
-0.03624989 0.041903492 0.034380816 -0.040716123 0.048140537 0.018052323 0.02051279 -0.026169078
-0.026726432 0.024944587 0.022624986 -0.01306843 0.05972878 0.050328366 -0.067988165 -0.030656608
0.03125968 0.017266762 0.0025514835 -0.03151327 -0.011622362 -0.0453268 0.0067661656 0.020413922
-0.027926736 0.031106737 0.033772014 0.013840743 0.047568414 0.048205595 -0.06381399 0.013394434
0.006848386 -0.0045838864 -0.029589763 0.015802316 0.052760992 -0.051187903 -0.024104638 -0.043047898
0.04058862 0.0055866376 0.018042391 0.012456043 0.03953961 0.0044369497 0.006518464 0.028291715
-0.066724315 0.01205439 -0.044365484 0.042956572 0.05362561 0.0128415255 -0.015121124 0.065081015
-0.016558386 -0.012019691 0.03781715 0.008108029 -0.021766556 -0.019238414 -0.032004707 -0.07660784
0.027998395 -0.031405605 -0.02420791 0.015414807 -0.00037002302 0.019458186 -0.015164035 -0.009085489
-0.0056730686 -0.019054253 -0.056157578 -0.05703855 -0.039966725 -0.007723026 -0.0143535305 -0.05213388
0.023207013 -0.000831468 0.0068911016 0.003711475 -0.025742047 0.046058223 0.022243375 0.0075123454
0.048278525 -0.00615866 0.014902355 0.008499765 -0.024145871 -0.022172568 -0.008800754 0.014811357
-0.036290467 0.0007284197 -0.010599566 -0.01580128 -0.034444652 -0.050476614 0.05941385 0.031076372
0.069469064 -0.033552855 -0.015770782 -0.016036747 0.06206936 0.04032491 0.04641561 0.029481549
-0.00588859 -0.051978707 0.03353857 -0.029134242 0.053222872 0.052581366 0.016885696 -0.027848165
-0.034081955 0.004560128 -0.05440062 -0.0640597 -0.0518151 0.022960294 -0.06723777 -0.021422539
0.069860995 0.002110749 0.035321623 -0.0343649 -0.03394263 -0.017467486 0.052572723 -0.028565556
0.016531948 0.004221121 -0.025986308 -0.044873223 0.016154403 -0.05577183 -0.004596804 -0.05226658
0.038684998 0.0030216882 0.020107066 -0.029418902 0.013603999 -0.048812933 0.05643638 -0.016649038
0.010604493 0.041015573 -0.008331712 -0.010351423 -0.020216927 0.051778857 0.038921993 0.0037896114
-0.050983015 -0.03768174 0.052265298 -0.0047819694 0.040012393 0.014836188 0.03503306 -0.057461407

q_net.0.bias f4 [256]
00000000: c183 633d eb48 c6bc 9b1b 023d 8cf5 a63c
00000010: 5cf0 ee3c d0c1 373d af5a 1a3d 95c9 2d3d
00000020: 41ff 36bd c98c 84bd b2ed 173d ca65 f73c
00000030: 0e48 793d bf7c 93bc 1e76 8fbb 0081 bf3b
00000040: 0261 80bd 786e 083c c245 393b c448 acbb
00000050: 8075 90bc e3c7 ef3c d890 73bd cf55 993b
00000060: 75f6 1cbd 484e 4f3d 72a4 72bd edec a0bc
00000070: 9df1 723d 77f8 153d e6da 2f3c e918 7b3d
00000080: f4d6 9b3d 6f6b 66bb 0823 67bc 7a7a 5f3d
00000090: cc0d 583d fae2 8d3b 6d0e fabc e1c3 2f3b
000000a0: da2c 903d d435 5bbd 902d a33c 31e2 2f3d
000000b0: f7ec 853b 9f77 123d 96f3 9c3c 6877 a8bc
000000c0: 471d b8bc 4940 693c e174 683d e4ca 603d
000000d0: 4adb fa3c 250a be3c ed29 1fbd 44b6 ff3c
000000e0: 4c3b bf3a 30cb 383d c795 adbc d4d4 41bc
000000f0: 5a67 e2b9 bea3 4abd 18ed 7abd 7513 073d
00000100: d85a 583b 277f 3f3c a75b cbbc 1ebb 88bc
00000110: 680f 4f3d 7b2c 08bd 1679 22bc 98d7 de3c
00000120: d4d5 313c f73e 5c3d bd9e 923d 1436 1abd
00000130: 0045 263c 8978 b23c df72 403d 296e 06bd
00000140: 8727 5b3d 69fc 85bd 55fd 943c 4bd2 13bc
00000150: 3f12 023c 3184 f8bb 6393 16bc f991 89bc
00000160: 562e 9e3c d2c8 b3bb 590d 343d 0698 453d
00000170: d9c8 8a3c 76a8 5f3d cf32 9a3c 58c5 8dbc
00000180: da78 133d c95b f7bc 7255 edbb 27a5 913d
00000190: caf7 dfbb 6aaa 723d 756e d93c 7baf de3c
000001a0: c2f0 9fbc c439 2dbd 4c28 5e3d 3f73 53bc
000001b0: 27eb 5c3c 9d41 b5bc ee59 13bc 1172 cf3a
000001c0: 6fdb 783d 2ab8 413d 9d49 e53c cb2e 11bd
000001d0: decf 3e3c 7961 923c 5086 ebbb e5b7 cc3b
000001e0: 2b70 44bc 25d4 fc3b 60ef d3bb 4ca4 36bd
000001f0: 208d 053d 55d2 07bd 4555 503d 3b5f 2c3d
00000200: d627 bfbc 6ae1 383d 4450 99b9 cb13 cdbc
00000210: 6e9f 043d a490 573d 260a 94bc adb2 b7bc
00000220: 6ad3 60bd 4b62 b93c e510 cbbc 9c66 563c
00000230: d364 0e3c 6723 403d 39f2 0d3c 95d4 093d
00000240: a6d7 933d 3a4a 053d 4f46 1e3c af30 303d
00000250: 52ad 643b 05a4 5f3d 4e96 233d 4c30 8fbd
00000260: a595 dc3c 7b63 d53c c49b c73b f27a 57bd
00000270: 1640 6c3b 491b debc ba67 b63c e931 6d3c
00000280: c9d6 033d c1da 183c 8ab0 9b3c a9f7 57bd
00000290: 64ef 19bd 255d 1a3c 2cd1 073d 2fb9 65bc
000002a0: 3ece 04bc 0a74 a73b 358e 84bd dcbf 2ebc
000002b0: 9f5a 343c b4d4 ac3d b2b5 98bc 3ebf 443c
000002c0: 2abd 443d 7276 f1bc fec9 e8bc a262 ebbc
000002d0: 2037 ffba 7d89 ccbc 2104 79ba 4412 253c
000002e0: 9cda e13c dbc0 043d 9f15 00bd d3da ab3b
000002f0: 69f2 53bc e877 143b d10c 543d b642 56bc
00000300: 5c45 6c3d 662c 623d 5c4d 613d fe0e e63c
00000310: 7cc8 c6bc fbb9 7cbc eca9 0cbd 4aa3 fe3c
00000320: 7b13 09bd 4aaa 373d cdc7 5fbc f123 9e3c
00000330: 38ef b63c 8f3c 0dbc e1ce d1bc 2942 fd3a
00000340: 9164 d5bb 533a da3c f2a1 853d 86f6 8ebc
00000350: 0706 513d cb30 523d 54bd 7e3d eb34 afbc
00000360: 3e30 423c 5656 b43c fa7d 31bd 02c2 8abc
00000370: 3905 df3c 19a2 37bc 2a9b 003c b999 38bd
00000380: 0cc8 46bd 08e9 143c ee99 03bd 6c92 913d
00000390: 3038 633d 45ae 793d 07f6 953c 055b 703c
000003a0: 6097 92bc c93e 863d c7e4 673d 4669 843c
000003b0: 0a02 1b3d d272 2ebc ea70 23bb 4087 e0bc
000003c0: 6e03 68bd 78b0 d2bc 7a3d 523d 5372 11bc
000003d0: 9638 a43c 45e6 683d 3340 b23c 6a11 a8bb
000003e0: 3c05 d73c 2fcf 853d f1dd 93bc 543b 133d
000003f0: b163 463d ea32 3c3d e906 f039 2827 313c
0.055545572 -0.024204692 0.031764608 0.020380758 0.029167347 0.04486257 0.03768414 0.04242857
-0.044677023 -0.06472165 0.03709192 0.030199904 0.060859732 -0.01800382 -0.0043780943 0.0058442354
-0.06268503 0.008327119 0.0028270339 -0.005257698 -0.017634153 0.029270118 -0.059464306 0.0046794186
-0.038320977 0.050611764 -0.05923886 -0.019644225 0.05931245 0.036613908 0.010733342 0.061303053
0.076093584 -0.003515925 -0.014107473 0.054560162 0.052747533 0.004330036 -0.030524457 0.0026819634
0.07039805 -0.05351813 0.019919187 0.042940322 0.0040870863 0.03575861 0.01915912 -0.02056475
-0.022474898 0.014236518 0.05675209 0.05488099 0.030622143 0.023198197 -0.038858343 0.03121484
0.0014589815 0.04511565 -0.021189583 -0.011830527 -0.00043183082 -0.049472563 -0.061261266 0.03297754
0.0033013131 0.01168803 -0.024823977 -0.016690787 0.050551802 -0.033245545 -0.009916564 0.027202412
0.010854203 0.053770985 0.07159183 -0.03764923 0.010148287 0.021785991 0.04698455 -0.0328199
0.053504493 -0.06542284 0.018187204 -0.009022306 0.0079389205 -0.007584118 -0.009190413 -0.016793238
0.019309204 -0.005486586 0.04395804 0.048240684 0.016941475 0.054604016 0.018823056 -0.017306015
0.036003925 -0.030195134 -0.007242852 0.071115784 -0.0068349587 0.05924455 0.026541928 0.027183285
-0.019523982 -0.042291418 0.05423765 -0.012905895 0.013483799 -0.022126013 -0.008993609 0.0015826841
0.060756143 0.047294773 0.027989203 -0.035445016 0.011646239 0.017868744 -0.007187642 0.006247508
-0.011989634 0.0077157193 -0.0064677447 -0.04459028 0.03260529 -0.033159573 0.05086257 0.042083006
-0.023334425 0.045136847 -0.00029242237 -0.025033852 0.032378606 0.052628174 -0.018071245 -0.022424066
-0.05488912 0.022629878 -0.02478833 0.013085987 0.008691031 0.046908762 0.008663707 0.03365
0.07218866 0.03254149 0.009660318 0.04301518 0.0034893346 0.05459978 0.039938264 -0.06991634
0.026926825 0.026048413 0.0060915668 -0.052607484 0.003604894 -0.02711262 0.022266258 0.014477232
0.032187257 0.009329499 0.019005079 -0.05272642 -0.037581816 0.009421621 0.033158466 -0.014021202
-0.008105813 0.0051102685 -0.06472436 -0.01066586 0.011007934 0.084390074 -0.018641327 0.012008486
0.048031963 -0.029475424 -0.02841663 -0.028733555 -0.0019471385 -0.024967903 -0.00094992114 0.010075156
0.027570061 0.032410484 -0.03127062 0.0052445917 -0.012936213 0.0022654478 0.051770035 -0.013077429
0.057683334 0.055218123 0.055005416 0.02808332 -0.02426552 -0.015425201 -0.034341738 0.031083722
-0.033465844 0.044840135 -0.013658476 0.019304248 0.022330865 -0.008620395 -0.025611343 0.0019322085
-0.0065122326 0.02663914 0.06525029 -0.017451536 0.05103114 0.051316064 0.062192276 -0.021387538
0.011852322 0.022013824 -0.04333303 -0.016938213 0.02722417 -0.011208081 0.007849494 -0.045068476
-0.048530623 0.009088762 -0.03212922 0.07108006 0.055473506 0.060957212 0.018305792 0.014670138
-0.017894447 0.06554944 0.056614663 0.01616348 0.03784374 -0.0106474925 -0.0024939128 -0.027408242
-0.056643896 -0.025718912 0.05132816 -0.008877355 0.020046514 0.056860227 0.021759128 -0.005129029
0.026247613 0.06533658 -0.018050166 0.03594525 0.048434917 0.045946993 0.00045781516 0.010812558

q_net.2.weight f4 [128, 256]
00000000: 5cf4 3f3d 6297 143d 5efb 03bd 1378 233d
00000010: 93e5 613d 6131 5dbc 84f7 583d 3488 f6bb
00000020: 4002 f1bc 27d0 e23c faf4 85bc 2000 273d
00000030: e52d a83c c438 343d 4b29 4d3d 8e9e 603b
00000040: ae32 863c 7bfb 85bc dcc1 663d 9576 0bbd
00000050: a277 babc 0bb7 dd3c 52d9 71bc 9b75 563b
00000060: 8ed2 7a3d 843e 903d 7f7a d23b bf0c 653d
00000070: dc64 473d 8fca 1abc e2c9 22bb 3723 093c
00000080: 9110 903d 2b14 593d d080 e3bc 369e 29bb
00000090: eccf 01bd c4a8 bfba ca91 983d b27a 133d
000000a0: ef6a 12bd 5234 353d 3637 823d 2d39 593d
000000b0: 3e1b 553c 986f d13b e208 923d 5d95 16bd
000000c0: c6a5 723d 6af1 2f3d b53e 3c3d 3340 823d
000000d0: 7182 a83d a377 633d 0d88 0bbd 9426 a93d
000000e0: 6f00 ae3d 732c 453d f3bd 9b3d 8d49 a93a
000000f0: 24bb 9b3d 0b6e 753d 5d3e 743d e2d8 cabb
00000100: 9260 1a3c 848f d7bc 2846 fdbc c258 593d
00000110: 6ad9 713d 30cd 353d 4539 bcbc 3da1 77bc
00000120: a9af 793d 3272 763d d78c 883d 2fe1 ed3c
00000130: 5b58 09bb babb 313c 1e6a ab3d 0da4 663d
00000140: 74bf 533d f251 bab9 c9f4 41bc 0c32 5c3d
00000150: ad00 343d d423 7d3c 6064 443d 2dd4 193c
00000160: de21 b33d 2798 3e3d 0451 9c3d b15f 9a3d
00000170: 6760 703d 36c2 dd3b bac9 2b3d 7636 093d
00000180: c490 26bc 6e6c 333d 82e4 9d3d f25b 8cbb
00000190: 5113 4d3d f2e1 873d e763 833d 1501 173d
000001a0: 0d25 8a3d ae11 8e3c 3038 813d f7d9 8c3d
000001b0: 3d18 b13d 268d 9f3d 2ef0 073d f8c3 04bb
000001c0: 05c3 2f3d 4412 203d 36d2 9738 61c9 123d
000001d0: 3e3e 8c3d bcc1 29bc 4d07 83bc 33a1 ac3d
000001e0: 6c22 b23d 4b83 f13b ea0d a93d c57d 2e3b
000001f0: 141d 5f3d 1947 f8bc 0ae1 9e3c 077f 923d
00000200: 9bb4 993d 08c3 e6bc ca57 073c 8514 14bd
00000210: 903f 563d f8a8 86bc 3147 4abc 15a4 3b3c
00000220: 31bb 6fbc 2fb4 143d aaab bcbc 7ff7 cc3c
00000230: d3bf bb3c 4a6d d2bc b31a 543d f936 643d
00000240: aa5d 9c3d ca2e dabc 58cf fcbb 4ff7 163c
00000250: 5234 993d 801a 44bc 39a3 813d 4dd0 08bd
00000260: 0b0e 563d 1060 323d 6bcf 6dbc e6fa 02bd
00000270: 2a25 a3bc e12a 67b9 a639 963d 34a6 123c
00000280: f063 e43a b5ae 26bb aafb 8b3d e4d0 3cbc
00000290: 62a8 4fbc 2f69 703d fb73 a83d 746c 27bd
000002a0: 8e2a 0cbd 20d3 a73d fe24 b13b b49d ff3c
000002b0: 6adc 833d a68b 843c d601 3d3d 9a5a b03b
000002c0: aa97 bbbc 69ad 08bd ca01 6a3c f3a5 6b3d
000002d0: ccd7 fcbc f495 0abb d4b2 973c 1b39 87bc
000002e0: 1960 8e3d c890 273d 1069 05bd 55a8 13bb
000002f0: 5b09 af3d 8405 573c a84b 8c3d 55f2 273d
00000300: d80c 883d f147 ab3d 619e 883d 1555 a03c
00000310: 7063 b43d a675 0cbd 7e8a 30bb 1fdb 7d3d
00000320: 852e a13d e1d7 19bc 37dc 943d 1f05 c33c
00000330: a204 94bc 5e5c 893d b58d ae3d fd33 a93d
00000340: db46 cbbc d671 af3c 554e f63b be32 ad3d
00000350: ac3a 00bd df6a f3bc 7fb8 183d da79 883d
00000360: ab6a a13d 2ab5 04bc 98de 01bd 25dd e83b
00000370: 551d 873d 8353 aaba d1b3 b13b 4ff6 56bc
00000380: 80be c43a 47f1 aabc 7209 743d f21b 49bc
00000390: c87a 68bc 89fc cabc 6e58 9b3d 4f8a 7c3d
000003a0: 6c86 abbb b9f9 883d 5314 293d 1d3d 813c
000003b0: eed2 743d 0e7a ddbc 6e02 f43b fbd4 663d
000003c0: 8b2a c73c a64d 2739 40ca 9c3d b7e4 c1bc
000003d0: 167b 9f3d 2f22 7a3d 66a5 513c 0e1b 6dbc
000003e0: 6338 323c 3bf3 773d 74df 563d 5907 893d
000003f0: 06a6 353c 6da8 8abb 6d99 433c 7080 a93d
0.0468639 0.036277182 -0.032222144 0.039909434 0.05515058 -0.013500542 0.052970424 -0.007523561
-0.029420018 0.027687145 -0.016352165 0.040771604 0.020529697 0.04399945 0.05008821 0.0034274193
0.016381588 -0.016355267 0.056337222 -0.034048636 -0.022762123 0.02706482 -0.014761286 0.0032723907
0.061235957 0.07043174 0.006423294 0.05592036 0.04868017 -0.009447708 -0.002483957 0.008370212
0.0703441 0.05299775 -0.027771384 -0.0025881655 -0.03169243 -0.001462244 0.07449682 0.036005683
-0.03574651 0.04423935 0.06358187 0.053033043 0.013006983 0.006391477 0.071306005 -0.036763538
0.059240125 0.04295484 0.04595824 0.06359901 0.08228005 0.055534016 -0.034065295 0.08259311
0.084961765 0.048138093 0.07604589 0.0012915597 0.076040536 0.0599194 0.059629787 -0.006190405
0.009422438 -0.02631355 -0.030917242 0.05306316 0.059045233 0.044385135 -0.022976527 -0.015114126
0.06095854 0.0601675 0.06667488 0.02903804 -0.0020957205 0.01084798 0.083698496 0.056308795
0.051696256 -0.0003553774 -0.0118381465 0.053758666 0.043945957 0.015450437 0.047947288 0.009388966
0.08746694 0.046531823 0.0763264 0.07537783 0.058685686 0.0067675365 0.04194043 0.033499204
-0.010166351 0.04380458 0.077096 -0.0042834217 0.05006725 0.066348925 0.06415539 0.036866266
0.06745348 0.017342415 0.06309545 0.06877511 0.08647201 0.07790594 0.033188038 -0.0020258408
0.042910594 0.03907992 7.239396e-05 0.03583658 0.06847809 -0.010361131 -0.015994692 0.08429184
0.08697972 0.0073703877 0.08254607 0.0026625257 0.05447109 -0.03030734 0.019394416 0.07153135
0.07505151 -0.02816917 0.008260677 -0.03615238 0.05230671 -0.016437992 -0.012346075 0.011452694
-0.014632032 0.03630465 -0.023031075 0.02502036 0.022918617 -0.025686879 0.051783275 0.05571649
0.076350525 -0.026633639 -0.007715147 0.009214236 0.074806824 -0.011969209 0.063299604 -0.033401776
0.052259486 0.043548644 -0.014514784 -0.031977557 -0.019915182 -0.0002204585 0.07335214 0.008950759
0.0017424803 -0.0025433723 0.068351105 -0.011524413 -0.012674423 0.05869406 0.082252465 -0.040874913
-0.03422027 0.08194566 0.005406021 0.031203128 0.06438525 0.01617987 0.04614433 0.0053818943
-0.022899467 -0.0333685 0.014282653 0.05753131 -0.030864619 -0.0021146508 0.01851789 -0.016506722
0.06951923 0.04090956 -0.0325709 -0.0022530754 0.08546706 0.013123874 0.06850368 0.04100259
0.06643075 0.08363331 0.066708334 0.01957182 0.08808029 -0.034291886 -0.0026938017 0.06197655
0.07870201 -0.009389848 0.07268565 0.023806153 -0.018068615 0.06707071 0.08523122 0.08261869
-0.02481406 0.021416586 0.007516662 0.08456944 -0.031305954 -0.029714046 0.037285324 0.06663866
0.078816734 -0.0080998335 -0.031706423 0.0071064406 0.065973915 -0.0012994859 0.005423047 -0.013120248
0.0015010387 -0.020867003 0.05957932 -0.012274729 -0.01418943 -0.024778621 0.07585226 0.06165534
-0.00523453 0.06688256 0.04127915 0.015776211 0.05977147 -0.02703574 0.0074465787 0.056355458
0.024312278 0.00015955287 0.076557636 -0.02366863 0.07787149 0.061067756 0.012795782 -0.014471782
0.010877701 0.060534697 0.052459195 0.066908546 0.011086946 -0.0042315037 0.011938435 0.08276451

q_net.2.bias f4 [128]
00000000: eead 8c3d 5f17 463d 4a54 5c3c 27b1 3abd
00000010: b515 d0bc 9332 813d 8759 363d c516 97bb
00000020: 691f 88bd 9252 bf3c 46f7 d3bc 828a b33d
00000030: f5a1 60bc 29aa 28bd ae2d bf3c c7fb d83c
00000040: dc98 4b3d e160 d3bc 0079 073d 2141 23bc
00000050: a2bc 133d 2833 a23b 445d 973d 6661 4cbd
00000060: 1229 1dbd 2f22 903c 082d ac3d 4b54 67bd
00000070: 4b72 6d3d 7229 e8bc e6df 2ebc 6cbb 9bbc
00000080: b663 07bd 8e15 9ebc 6406 2d3d a937 22bc
00000090: 4dc8 1f3d c3ea a33c e514 f03c c21f b23d
000000a0: ade8 87bc 32dd 193b bea2 7b3d 6de1 86bc
000000b0: 774a 01bd 3660 073d c386 11bd 9b42 ea3b
000000c0: cf11 9b3b 215a cabb 3fc1 ddbb 9a2f 613d
000000d0: 928f 093c f54d a9bc 4507 cfbc 8ab1 443c
000000e0: 4771 463d 1919 0dbd 2317 b63b b948 d7bb
000000f0: f307 74bd 873d 723d 6ce1 663c 7b6c adbc
00000100: 4802 323d dfd9 773c d5a9 303d 39e9 17bd
00000110: 0cb7 53bd dbb4 0f3d 20cf 223b 842c af3d
00000120: cd46 4cbd 5de7 453d 83f6 c2bc 1779 9c3d
00000130: c356 bf3d 181b a03d b9fa e43c 8149 423d
00000140: 2748 783b f2b4 3ebc ac8b 073d a2e0 5d3d
00000150: 2a6a 20bd 51be 003d 83b8 a63d 4356 38bd
00000160: 7b27 8a3d 7677 af3d 7847 7e3c f583 c9bc
00000170: d9f3 ccbc bf4a 1cbd bad9 0e3d 141e afbb
00000180: 8b95 8c3c 7eb6 ac3c 30a5 363d 5403 313d
00000190: cca0 22bd 0135 36bc ff38 8c3d f6c5 433d
000001a0: 9864 9f3b 98ba 7d3d 01bc 11bb 98bc 3bbd
000001b0: bd6c b3ba c10e ec3c 95ba 97bd 6e46 70bd
000001c0: f593 afbc 38c4 04bc b6ed d13a b0af 97bc
000001d0: e4e3 033d ff6b eebc eb26 813b f7a0 1bbc
000001e0: b46b b2bc 15fd 88bc 21f5 94bc cc3e 4cbd
000001f0: 322c 023d ddf0 bb3d a614 183d 24ea f43c
0.06869112 0.048362132 0.01344783 -0.045579102 -0.025400976 0.063084744 0.044518974 -0.0046108686
-0.06646616 0.023354802 -0.025874745 0.08766653 -0.013710489 -0.041177902 0.023337211 0.026487244
0.049706325 -0.025803031 0.03307438 -0.009964258 0.036068566 0.004949946 0.07390836 -0.049897574
-0.038369246 0.017594425 0.084070265 -0.056476872 0.057970326 -0.028340075 -0.010673499 -0.019010268
-0.033054076 -0.019297387 0.042242423 -0.009900966 0.03900938 0.020009404 0.029306838 0.086974636
-0.01659044 0.002347779 0.0614345 -0.016464913 -0.031565156 0.03305074 -0.03552891 0.0071490533
0.0047323476 -0.006175295 -0.0067674215 0.054977037 0.008396046 -0.020667056 -0.025272021 0.012005219
0.048447873 -0.034447763 0.0055569573 -0.0065699485 -0.059577893 0.05914071 0.014091831 -0.021169892
0.043459207 0.015127628 0.043130714 -0.037087653 -0.05168824 0.035084587 0.0024842694 0.085534126
-0.04987221 0.04831635 -0.023799187 0.076402836 0.0934272 0.07817668 0.027951585 0.04743338
0.0037884803 -0.01163982 0.033092186 0.054169305 -0.039163746 0.0314315 0.081406616 -0.04500414
0.067458116 0.08567707 0.015519969 -0.024599055 -0.02501862 -0.03815722 0.03487561 -0.0053441618
0.017161151 0.021083113 0.04459113 0.043216065 -0.03970413 -0.011121036 0.06846809 0.047796212
0.0048642866 0.061945528 -0.0022237303 -0.045834154 -0.0013689023 0.028815629 -0.074086346 -0.058660917
-0.021432856 -0.008103423 0.0016016278 -0.018516392 0.032199755 -0.02910423 0.003941407 -0.009498826
-0.021779872 -0.016722241 -0.018183293 -0.049864575 0.03178043 0.091768004 0.037129067 0.029896803

q_net.4.weight f4 [27, 128]
00000000: 3487 843d 8277 3cbc af99 92bd c591 75bd
00000010: 679b 593c c0d1 72bd ceb2 57bd b6c3 cc3c
00000020: 2afe 12bc 14d6 06bd d0a4 45bc e196 ad3d
00000030: 7583 a33d 70e4 90bd b16e 03bc 4809 3ebc
00000040: 922d 4ebc 15c1 a33d 2560 293c 47a5 023d
00000050: 23c2 8c3c 20cb d0b9 7344 c13d 648e bd3c
00000060: c42e 803d 9847 1fbc bdf0 e53c 0c89 e9bc
00000070: 6b3e 2d3d 7b2e 70bd 5ae6 8dbd 445e ffbc
00000080: 6184 8dbd e140 aa3d 423f 6b3d 99a3 26bd
00000090: b0f2 e33c 9912 153d 34e8 1ebd 59d3 913c
000000a0: 1618 b33d ba54 30bd 8c6a 973d 2a3f 9cbd
000000b0: 4b9e bbbc 6887 863d 7919 bcbc e3a0 2abd
000000c0: 596f 87bc 0127 883d 54b9 853d 687a 4b3d
000000d0: 0092 46bd eb58 2d3d 8391 ea3a f20a 52bd
000000e0: e1ef 023d 8db5 883d 9f06 b63d 5e69 e5bc
000000f0: fe8e 25bd 597c 8f3d 55b0 c03c fdfe 61bd
00000100: 18d4 573d 891c ae3c 67d3 a9bd e995 803d
00000110: b4e4 c13c e21c b838 24ab 693c af9d f73c
00000120: 6ca5 a63d 58a7 4b3c 130f 0f3a b9d0 423d
00000130: 042b c83d 62f5 a33d 4d4e f93c 4d1b 88bd
00000140: 7576 a3bc 5d80 7b3d 5e66 12bd d40f fb3c
00000150: 337f 9e3d 7475 383d 5b08 ba3d fd22 b83c
00000160: 29ed aa3d c519 943d 8ff0 26bd 9305 a8bd
00000170: 0b5c 55bc 9862 513d c70d 833d 4fd6 5c3d
00000180: 1ca0 923d 8c47 c5bc d801 b33d da6d 193d
00000190: 6376 b03d d401 28bd 2fce 62bd 61d9 c9bc
000001a0: 5ec1 c6bb bf6a 9b3d e143 4cbd a05b 87bc
000001b0: b741 9bbc bb5d 5dbd ba44 1abd 6f50 7cbd
000001c0: 062b 18bd 22fd 453d 2148 16bc cd6f b13d
000001d0: 5230 babc e269 78bd bf0e 6c3d 551d 973d
000001e0: e9df bb3a 71e6 6c3d c006 86bd 7c9d 02bc
000001f0: c862 8ebb 3168 c43d 7fc7 b8bc 50e2 d23c
00000200: be1a 623d 8886 533c 26fe 083d ea90 8f3d
00000210: a934 cf3c 1ecf 393d b313 b53d d30e 333d
00000220: 4df9 20bd 31c7 0f3d 32a5 9cbc 566e 81bd
00000230: 31f3 783d 8708 7ebc 0c5e a7bb 955c 9a3d
00000240: 6ec7 4bbd f3cb 323d 3b91 7439 78f1 47bc
00000250: 91dd a43d 7066 7d3d 1e3d 843d d279 943d
00000260: c0ba 85bd 416b 7a3d 7d15 a83d 3e87 2fbd
00000270: 9b13 a63c 1f42 51bd ebe1 193d c5a0 f6bb
00000280: 6e31 eb3c a08d 4bbd 10c5 c93c a612 1fbd
00000290: be69 653c 9be7 15bd 8b9a 8d3d 39c8 a33d
000002a0: 81a7 99bc 5dec bfbc 51a4 a23c 58e5 34bd
000002b0: eb6a 2ebc bd51 373d e8c2 a13d 7c6b a93c
000002c0: 56f2 9ebd 28f4 49bc 6bdb c13d 18b0 35bd
000002d0: fe9c 803d 89d3 213d 8483 92bc 9f9e bd3d
000002e0: cfbc 09bc a6b6 2a3d e58f 003d 4290 993b
000002f0: acea 193c 639f d83d cc7b 7a3d e69c 2d3b
00000300: a3dd 823d 304f 883d 49f3 caba 5960 5ebd
00000310: c976 3a3d 7097 7b3d 6042 b6bc 3238 68bd
00000320: 7738 a7bb 8305 0dbc f1b9 4c3d b147 06bd
00000330: b90a cb3d 9bfa 463d 34a4 fabb 6e45 693d
00000340: 2665 bc3d 61ff 943d 14f1 8abd 8a2a 9c3b
00000350: 0348 68bd 0c25 a23d 8427 9f3d b06a d8bc
00000360: 8256 87bd 8639 7d3d 045e 5dbc 4143 c0bc
00000370: 065a b9bc 54a9 eebc 1994 75bd a20c c43b
00000380: cfe8 023d ff8b 903c ccb0 86bb 885f 0d3c
00000390: 5874 95bd ace8 25bc 9d85 703c b4dd 18bd
000003a0: 022d af3d 5e05 6dbd 8a84 a93d dc04 fd3b
000003b0: da44 8bbd 5f0b 03bd df7d 8c3c 4f2f 84bd
000003c0: 32fe aa3d f072 e63b d7cd 893b ca63 b83d
000003d0: d7b0 af3b 8905 3fbd 6b75 a53d de53 433c
000003e0: 54dd 823d dfeb fc3c 8aab b83c 465c a13b
000003f0: ddcf 963d 801e 0b3d 970f 83bd d477 823d
0.064711004 -0.011503102 -0.07158219 -0.05995347 0.01328168 -0.059282064 -0.052660756 0.024995666
-0.00897173 -0.032919005 -0.01206322 0.084760435 0.07984058 -0.07074821 -0.008021996 -0.0115988925
-0.012584107 0.07995812 0.010337864 0.031895902 0.017182415 -0.00039824191 0.09436884 0.023139186
0.0625892 -0.009721659 0.028068895 -0.028507732 0.042295855 -0.058638077 -0.06928702 -0.031172879
-0.06910015 0.08313156 0.057433374 -0.040683363 0.027825683 0.03639469 -0.038795665 0.017800974
0.087448284 -0.04304955 0.07393369 -0.07629235 -0.022902628 0.065687954 -0.022961365 -0.04165734
-0.016532587 0.066480644 0.06529489 0.049677283 -0.04847908 0.042321127 0.0017896149 -0.05127997
0.031967048 0.06675253 0.088879816 -0.028004345 -0.04041957 0.07006139 0.023521582 -0.055174816
0.052692503 0.021253841 -0.08292275 0.06278593 0.023668624 8.7791836e-05 0.0142619945 0.030226557
0.081370205 0.012430035 0.00054572633 0.047562335 0.097738296 0.080057874 0.030432845 -0.06645832
-0.019953946 0.061401714 -0.035742156 0.030647196 0.07739105 0.045033887 0.09083625 0.022477621
0.08346016 0.07231478 -0.04075676 -0.08204188 -0.013022433 0.051119417 0.06399112 0.053915318
0.07159445 -0.024081968 0.08740586 0.03745828 0.086163305 -0.04101737 -0.055372413 -0.024639787
-0.0060655316 0.075887196 -0.049869422 -0.016523182 -0.018952234 -0.054044466 -0.0376632 -0.061600145
-0.037150405 0.04833711 -0.00917247 0.086639024 -0.022728119 -0.060647853 0.05763125 0.073786415
0.0014333698 0.057836954 -0.06544256 -0.0079721175 -0.0043452717 0.095901854 -0.022556065 0.02574268
0.055201285 0.012910493 0.0334455 0.07010062 0.025293665 0.045363538 0.08841648 0.04371531
-0.03930025 0.035102073 -0.01912174 -0.06319873 0.0607788 -0.015504963 -0.005107647 0.0753719
-0.049750738 0.043651532 0.00023323756 -0.012203567 0.08050073 0.06186527 0.0645697 0.07249798
-0.0652976 0.06113744 0.082072236 -0.042853586 0.02027302 -0.05108845 0.037568968 -0.0075264894
0.028710093 -0.04969561 0.0246301 -0.038836144 0.014002262 -0.03659783 0.06914242 0.07997174
-0.01875663 -0.023428136 0.019853743 -0.04416403 -0.010645608 0.044755686 0.078985035 0.020681135
-0.07761066 -0.012326278 0.09465679 -0.04435739 0.06279944 0.039508376 -0.017884977 0.0925877
-0.008406832 0.041678093 0.03138723 0.0046863863 0.009394329 0.105772756 0.06115322 0.0026491224
0.0638993 0.06655729 -0.0015483882 -0.054291103 0.04552344 0.06142372 -0.022248447 -0.056694217
-0.0051031667 -0.008607271 0.049982015 -0.032783214 0.099141546 0.04857884 -0.007648969 0.05695098
0.0919898 0.07275272 -0.06784263 0.0047658132 -0.0567093 0.079172224 0.07771209 -0.02641806
-0.06608297 0.061822437 -0.013511185 -0.02346957 -0.022625934 -0.029133476 -0.05995569 0.0059829513
0.031960305 0.01764488 -0.0041104313 0.008628733 -0.072975814 -0.010126274 0.014680293 -0.037320808
0.085535064 -0.057866447 0.08277233 0.0077215265 -0.06800242 -0.031993266 0.017149864 -0.06454336
0.08349265 0.0070327446 0.004205446 0.09003408 0.005361657 -0.046636138 0.08079036 0.011921851
0.06389871 0.03087419 0.022542734 0.00492433 0.073638655 0.033964634 -0.06399458 0.06370512

q_net.4.bias f4 [27]
00000000: 2c7f b8bc aa3b d73c f197 a83d 9205 813b
00000010: c794 16bd fe04 64bd d5d5 783d 2430 c73d
00000020: 3913 da3d 65ea a83d 498c 503d c897 9cbc
00000030: 48cd 6c3c 2754 eabc f9ab 6d3d e8b2 b0bd
00000040: ab7e a4bd a13b 3dbd 558f 9e3c e83d adbd
00000050: 66e5 44bc 84c7 a3bd 4a41 813d 143c adbd
00000060: d342 3bbd 0db1 48bc ea2d cb3c
-0.022521578 0.026273567 0.082321055 0.0039374316 -0.03676298 -0.055668823 0.0607508 0.09725979
0.10648198 0.08247832 0.050915036 -0.019115344 0.01445324 -0.02860458 0.058025334 -0.08627874
-0.080319725 -0.046199445 0.019355455 -0.08459073 -0.0120175835 -0.07997039 0.06311281 -0.084587246
-0.045718025 -0.012249243 0.024802167
