models/news_dqn.pth (torch, 742433 bytes, 5 tensors)

q_net.0.weight f4 [256, 592]
-0.0038855327 -0.030839797 0.036515947 -0.005950347 0.012001314 -0.0022887173 0.024812391 -0.013505246
-0.032162357 -0.021975271 -0.02329858 0.01956254 -0.04671901 -0.01741136 0.009986176 0.023147028
-0.006217704 0.037567154 0.0063999486 -0.043237172 -0.021127831 -0.023762707 0.016716937 -0.038156785
-0.009177667 -0.0038239178 -0.010503499 -0.014561608 -0.050106224 0.008888217 0.023915634 0.036691178
0.034692522 -0.055361047 0.007857437 -0.042500764 0.017722832 -0.015535423 0.007920765 0.023658536
0.03689104 0.01910275 0.0149415955 -0.019615436 0.034022287 -0.03059951 -0.02174808 -0.011736276
0.022341935 0.026219172 0.06838408 -0.051277656 -0.010457688 -0.052714583 0.0032856101 0.0484043
0.005199722 0.004958442 -0.012808259 -0.013336298 0.02698786 -0.023861328 -0.007743641 0.027211297
0.0010838391 0.010011917 0.035061255 0.043594766 0.017678292 0.028826363 0.009753397 0.004592843
-0.03800962 0.019294238 -0.034033377 0.0034071987 0.032081135 0.03242351 -0.0007217397 0.032481667
-0.015766697 -0.0041477047 0.020687358 -0.041814234 -0.05220254 -0.011424302 0.003481028 -0.0031282622
0.041345008 -0.04270801 0.027494866 0.017119098 0.04176815 -0.014902841 0.009157718 0.040975057
-0.033176653 -0.04312432 -0.031862237 -0.022925857 -0.027068187 -0.0023982674 0.033600654 0.016202034
0.015180958 0.00027078763 -0.01122066 -0.017771194 0.00571827 -0.04823426 -0.022572221 -0.011770346
-0.0012139499 -0.01772709 0.012543354 0.013735599 -0.03316512 -0.0064831446 -0.009618301 -0.02923264
-0.012638357 0.01828998 0.0014811058 0.001188462 0.037429515 0.013969503 -0.034875356 -0.001977589
0.020628871 -0.035049688 -0.00023108293 0.04550203 0.045930583 0.0155001525 -0.058487568 -0.062670246
-0.021157991 -0.04875742 -0.009870794 -0.032135274 -0.014601743 0.024677766 0.040939666 0.048930872
-0.00047581992 -0.0051864926 -0.03725833 -0.0021311475 -0.029700223 -0.018597655 0.015361666 -0.015750019
-0.017772578 0.046741907 0.0057227896 0.0054364996 0.040933516 -0.008352537 -0.0046719816 0.004905287
0.023370419 0.019192627 0.00050098496 -0.053892188 0.039447095 0.011024438 0.03619937 0.05507782
0.0028957662 -0.0043317513 -0.009607013 0.016582683 0.039297342 0.020244764 0.009492297 0.00030549703
0.04181297 -0.038582027 0.03142129 0.031254888 0.033397086 -0.033998705 -0.016778849 0.046453416
-0.039148644 0.000134744 -0.032532215 -0.013505982 -0.023476517 0.025968168 0.012185627 -0.035169948
-0.0099733295 -0.028217573 0.037850086 0.025086751 -0.035557546 0.025605613 0.023151457 0.024417832
-0.048881993 -0.004381474 0.017179236 -0.043930437 -0.0022345583 0.042113215 -0.00043750784 -0.01624453
0.0030541152 -0.0016761045 0.04132818 0.04239052 0.022500942 0.027247023 0.011121229 0.023739504
0.009215228 0.051927723 0.027879104 0.013832755 0.018603854 0.017400244 -0.0048062056 -0.010101399
0.032623902 0.040419288 -0.045611843 0.021263147 -0.0436161 0.026306115 -0.004201111 -0.018183708
0.06175525 0.023321955 -0.035868734 0.010482116 0.034252826 0.008689456 -0.021783369 0.026104603
0.0037898023 -0.045192305 -0.029984428 0.008648876 0.010131203 0.050398428 -0.030646332 -0.0061169825
0.0356125 0.015737802 -0.046155583 -0.045144882 -0.042055134 -0.015266047 -0.023348818 0.01986975
00000000: 6ca4 7ebb bea3 fcbc bf91 153d 21fb c2bb
00000010: 29a1 443c 4efe 15bb 5b43 cb3c 1b45 5dbc
00000020: adbc 03bd 7c05 b4bc aadc bebc 9f41 a03c
00000030: 6f5c 3fbd 45a2 8ebc 0f9d 233c d69e bd3c
00000040: e2bd cbbb 04e0 193d a9b6 d13b 7619 31bd
00000050: 4614 adbc 02aa c2bc f5f1 883c 4a4a 1cbd
00000060: ed5d 16bc b29a 7abb de16 2cbc d093 6ebc
00000070: 2f3c 4dbd e29f 113c b8ea c33c 7d49 163d
00000080: bf19 0e3d 44c2 62bd 7bbc 003c 4815 2ebd
00000090: 792f 913c 4988 7ebc 19c6 013c 8ccf c13c
000000a0: 0f1b 173d 5f7d 9c3c 98cd 743c 8db0 a0bc
000000b0: f45a 0b3d d3ab fabc 0829 b2bc 8249 40bc
000000c0: 6f06 b73c 97c9 d63c f40c 8c3d 8508 52bd
000000d0: b956 2bbc 3feb 57bd 6453 573b 9643 463d
000000e0: 6e62 aa3b 6d7a a23b bbd9 51bc 7d80 5abc
000000f0: a515 dd3c d578 c3bc 5ebe fdbb 3aea de3c
00000100: 9b0f 8e3a 0609 243c 649c 0f3d 6d90 323d
00000110: 11d2 903c 4425 ec3c b6cc 1f3c 8f7f 963b
00000120: faaf 1bbd f30e 9e3c 9566 0bbd 4f4b 5f3b
00000130: 8267 033d 84ce 043d 2233 3dba 7f0b 053d
00000140: 2929 81bc 78e9 87bb 8978 a93c 6745 2bbd
00000150: 55d2 55bd ff2c 3bbc f521 643b 8803 4dbb
00000160: 6259 293d 98ee 2ebd ea3c e13c 5a3d 8c3c
00000170: 1415 2b3d 0c2b 74bc 410a 163c 76d5 273d
00000180: 3ee4 07bd 21a3 30bd fa81 02bd 02cf bbbc
00000190: 1abe ddbc 402c 1dbb d7a0 093d 21ba 843c
000001a0: 8eb9 783c 80f8 8d39 dcd6 37bc e594 91bc
000001b0: 5360 bb3b 4a91 45bd 61e9 b8bc 69d8 40bc
000001c0: 661d 9fba 6738 91bc a482 4d3c 470b 613c
000001d0: 26d8 07bd 8f70 d4bb 1496 1dbc 4a79 efbc
000001e0: 1c11 4fbc ded4 953c aa21 c23a 2bc6 9b3a
000001f0: b14f 193d 58e0 643c 76d9 0ebd 709a 01bb
00000200: e1fd a83c 4390 0fbd da4e 72b9 5660 3a3d
00000210: b521 3c3d 5af4 7d3c a990 6fbd 4259 80bd
00000220: 8653 adbc dcb5 47bd 1cb9 21bc 47a0 03bd
00000230: 263c 6fbc 0729 ca3c 5ab0 273d bd6b 483d
00000240: 7877 f9b9 74f3 a9bb 319c 18bd b9aa 0bbb
00000250: e24d f3bc 1c5a 98bc 7faf 7b3c 2f06 81bc
00000260: cc97 91bc 7174 3f3d 3d86 bb3b aa24 b23b
00000270: e7a9 273d 14d9 08bc 6c17 99bb 88bc a03b
00000280: 5273 bf3c db39 9d3c 8854 033a 0ebe 5cbd
00000290: 4793 213d d89f 343c ca45 143d 4899 613d
000002a0: e5c6 3d3b 5df1 8dbb bc66 1dbc 68d8 873c
000002b0: 40f6 203d 59d8 a53c 9485 1b3c 1e2b a039
000002c0: 1444 2b3d 3008 1ebd 9cb3 003d 2005 003d
000002d0: 62cb 083d 3a42 0bbd cc73 89bc f045 3e3d
000002e0: 545a 20bd 114a 0d39 8040 05bd 3248 5dbc
000002f0: d351 c0bc 32bb d43c 39a6 473c 5d0e 10bd
00000300: 2d67 23bc 8a28 e7bc b108 1b3d bb82 cd3c
00000310: caa4 11bd ddc2 d13c 20a8 bd3c e807 c83c
00000320: 7c38 48bd 7892 8fbb 78bb 8c3c 67f0 33bd
00000330: ab71 12bb e87e 2c3d 4f61 e5b9 4013 85bc
00000340: 8d27 483b bcb0 dbba bd47 293d afa1 2d3d
00000350: e553 b83c 2635 df3c d135 363c 5979 c23c
00000360: 78fb 163c 2ab2 543d b862 e43c c8a2 623c
00000370: 1c67 983c f58a 8e3c 607d 9dbb 5780 25bc
00000380: a4a0 053d b28e 253d 7cd3 3abd 0d30 ae3c
00000390: cca6 32bd ec7f d73c 79a9 89bb 00f6 94bc
000003a0: 13f3 7c3d af0d bf3c 18eb 12bd 2ebd 2b3c
000003b0: b14c 0c3d 385e 0e3c 0973 b2bc 52d9 d53c
000003c0: 555e 783b 911b 39bd e7a1 f5bc 04b4 0d3c
000003d0: 58fd 253c 956e 4e3d 040e fbbc f870 c8bb
000003e0: 6ade 113d 90ec 803c a30d 3dbd d7e9 38bd
000003f0: 0142 2cbd 711e 7abc 0546 bfbc e3c5 a23c

q_net.0.bias f4 [256]
-0.020118713 -0.04309061 0.013565028 0.024415573 -0.02142296 -0.035063766 0.017780965 0.007369069
-0.037534177 0.0326777 -0.018278137 -0.01777218 0.034260023 0.0050507886 0.020370606 -0.057083875
-0.0098319445 -0.05551883 -0.009192806 0.019266915 -0.026517062 -0.05196797 0.020611301 -0.027945446
-0.01078719 -0.045036115 -0.0153072 -0.054804076 0.020873748 -0.030794164 0.007527737 -0.04064631
-0.041957173 -0.022740006 0.047283676 0.010227445 -0.00042803088 -0.03188672 0.008250634 0.030119384
0.022065723 0.013438146 0.011961322 -0.013430674 0.003701988 -0.022626983 -0.0111632245 -0.003617659
-0.0007184781 0.028561838 0.006263847 -0.025161082 0.016197622 0.026201459 0.044949125 0.0063737077
0.021117285 0.003042417 -0.01360462 -0.011326086 -0.023902109 -0.04275955 0.009916977 -0.039635733
-0.048880666 0.0051805433 -0.033210892 -0.042648304 -0.020218259 -0.022565842 -0.0066126348 0.0021493654
0.025488524 -0.0035258483 -0.019518396 -0.018224683 0.005384613 -0.04359959 -0.029343773 -0.00484893
0.025444362 -0.038925424 -0.06695754 0.0342274 -0.03436986 -0.012034032 0.029599685 0.014267714
-0.023321947 -0.028004032 0.008751019 0.023374857 0.043486107 0.018703803 0.03723196 0.052033205
-0.06104557 -0.020392047 0.009059265 -0.019265449 -0.018894387 -0.008387584 0.060974583 -0.037421353
0.027155928 0.0051158317 -0.0005970099 -0.0015653386 -0.01918285 0.005655386 -0.030191876 -0.022770239
-0.011902591 0.023623958 -0.046460316 -0.010115549 -0.016909631 -0.003747329 0.0408146 0.019868733
-0.024073986 0.05626748 0.0065015163 0.028414197 -0.030342106 0.03583255 0.0036935017 -0.003019371
0.047264356 0.03544732 0.0104977675 -0.046047624 -0.0025977811 -0.033210125 -0.004374464 0.012687849
0.0080824625 -0.020037878 -0.054694712 0.011575448 0.02213836 0.001987356 0.00414852 -0.02301964
-0.006843391 -0.011633586 -0.038962387 -0.024886027 0.026430897 -0.0073064426 0.029814323 0.015862517
0.042978965 0.024116209 -0.01919536 -0.003054477 -0.050752517 0.013969725 -0.02560572 -0.06254479
-0.032384925 -0.010383713 0.041735385 0.012371859 0.032792322 0.027845507 0.033724587 -0.05996942
-0.010983138 -0.03471674 -0.004000788 -0.018748036 0.028663522 -0.031559665 -0.022462716 0.014806458
0.014873982 -0.012852948 0.0030386175 0.051750645 0.04069054 -0.0027146558 0.01940012 -0.030664878
0.032358326 0.018050263 -0.04737936 -0.01325472 -0.057679716 -0.01441948 -0.026169017 0.03222883
0.010272169 -0.012265884 -0.015320242 0.03613194 0.01812685 0.015427399 -0.07762238 -0.02609911
0.0027745285 0.0067897486 -0.04437943 -0.009631427 -0.048351943 0.008007903 -0.0474508 -0.0070714997
-0.020101039 0.0023977924 0.0017850387 -0.0021639403 0.031744637 0.021076078 0.024196394 0.029300895
0.021838933 -0.043758985 0.029356997 0.02259947 0.05085287 -0.041826032 0.016195724 0.020420041
-0.024513485 -0.02278119 0.023427147 0.008044661 0.008407377 -0.016372465 -0.08200543 -0.027939698
0.028276036 -0.04316969 -0.038563337 0.0051888684 0.025426226 -0.016933909 0.013205378 0.014392328
0.02191143 -0.015010392 0.015238007 -0.06860051 0.045323342 0.048170466 0.024996152 0.024884801
0.044811986 -0.022510828 -0.032965153 -0.017595617 0.005678484 -0.017774714 -0.030918013 -0.0010064541
00000000: 00d0 a4bc c87f 30bd da3f 5e3c 2b03 c83c
00000010: 347f afbc 069f 0fbd 63a9 913c 3b78 f13b
00000020: 70bd 19bd 0dd9 053d 08bc 95bc f696 91bc
00000030: 3d54 0c3d 1681 a53b 42e0 a63c c8d0 69bd
00000040: 2a16 21bc b667 63bd 6c9d 16bc a6d5 9d3c
00000050: 4f3a d9bc 5edc 54bd 08d9 a83c d9ed e4bc
00000060: c1bc 30bc ca77 38bd 0dcb 7abc 3d7a 60bd
00000070: 6cff aa3c 0b44 fcbc 3cab f63b bf7c 26bd
00000080: 49db 2bbd 4049 babc 87ac 413d 0391 273c
00000090: 5569 e0b9 a69b 02bd ab2d 073c edbc f63c
000000a0: 2dc3 b43c ab2b 5c3c 6cf9 433c 540c 5cbc
000000b0: 0d9d 723b 395c b9bc f5e5 36bc 3f16 6dbb
000000c0: 4058 3cba 84fa e93c f540 cd3b 9d1e cebc
000000d0: e0b0 843c 71a4 d63c 931c 383d 89da d03b
000000e0: 28fe ac3c 4a63 473b e9e5 5ebc 0c91 39bc
000000f0: 5bce c3bc a324 2fbd d17a 223c 1459 22bd
00000100: 1837 48bd 8cc1 a93b 2508 08bd fdaf 2ebd
00000110: c3a0 a5bc 00dc b8bc cdae d8bb 5edc 0c3b
00000120: 4fcd d03c eb11 67bb 0be5 9fbc ee4b 95bc
00000130: 6871 b03b 7c95 32bd 5a62 f0bc c6e3 9ebb
00000140: b270 d03c 4470 1fbd 0921 89bd 0832 0c3d
00000150: 69c7 0cbd 632a 45bc 0a7b f23c 21c3 693c
00000160: ab0d bfbc b668 e5bc 6f60 0f3c a17c bf3c
00000170: 7d1e 323d b838 993c 8a80 183d c520 553d
00000180: eb0a 7abd 390d a7bc 506d 143c 93d2 9dbc
00000190: 67c8 9abc 146c 09bc 7cc0 793d 2247 19bd
000001a0: 1c76 de3c b5a2 a73b a880 1cba 0c2c cdba
000001b0: 5a25 9dbc d150 b93b f454 f7bc a788 babc
000001c0: 1603 43bc 0887 c13c 2c4d 3ebd b0bb 25bc
000001d0: 1186 8abc c095 75bb 362d 273d c1c3 a23c
000001e0: cf36 c5bc bb78 663d ac0a d53b e4c4 e83c
000001f0: 0290 f8bc 27c5 123d ad0e 723b a4e0 45bb
00000200: 4598 413d 3631 113d d4fe 2b3c 6f9c 3cbd
00000210: 893f 2abb 5707 08bd aa57 8fbb b2e0 4f3c
00000220: 4e6c 043c 7a26 a4bc 9007 60bd f3a6 3d3c
00000230: 825b b53c 4d3e 023b 4ff0 873b af93 bcbc
00000240: 863e e0bb cc9a 3ebc 0697 1fbd c8dd cbbc
00000250: 9c85 d83c e26a efbb 2b3d f43c 1cf2 813c
00000260: b60a 303d 5b8f c53c 963f 9dbc 9f2d 48bb
00000270: dfe1 4fbd 46e1 643c 16c3 d1bc 7c17 80bd
00000280: 0ea6 04bd 7320 2abc b9f2 2a3d 56b3 4a3c
00000290: 3e51 063d 431c e43c cb22 0a3d 7fa2 75bd
000002a0: 9ff2 33bc 2433 0ebd 0b19 83bb 7b95 99bc
000002b0: c3cf ea3c b544 01bd bb03 b8bc c996 723c
000002c0: 01b2 733c 2c95 52bc 8b23 473b 7cf8 533d
000002d0: 20ab 263d 5ee8 31bb 00ed 9e3c e934 fbbc
000002e0: 2a8a 043d 25de 933c dc10 42bd 532a 59bc
000002f0: 9141 6cbd af3f 6cbc 6860 d6bc 6102 043d
00000300: 994c 283c d9f6 48bc c101 7bbc 16ff 133d
00000310: c27e 943c 34c3 7c3c 7bf8 9ebd cdcd d5bc
00000320: ddd4 353b 8a7c de3b 35c7 35bd 22cd 1dbc
00000330: b00c 46bd 9433 033c c55b 42bd 0ab8 e7bb
00000340: efaa a4bc 4824 1d3b f6f7 e93a e5d0 0dbb
00000350: aa06 023d bda7 ac3c 8437 c63c 6e08 f03c
00000360: 90e7 b23c 9f3c 33bd 167e f03c 8622 b93c
00000370: 194b 503d c651 2bbd e5ac 843c ee47 a73c
00000380: 81d0 c8bc 9e9f babc 4aea bf3c c1cd 033c
00000390: 18bf 093c 8c1f 86bc 76f2 a7bd cbe1 e4bc
000003a0: 25a3 e73c b3d2 30bd 97f4 1dbd 6207 aa3b
000003b0: a94a d03c fbb8 8abc 5f5b 583c cdcd 6b3c
000003c0: 997f b33c 26ee 75bc d5a8 793c 6d7e 8cbd
000003d0: f8a4 393d 654e 453d bbc4 cc3c 36db cb3c
000003e0: c68c 373d a168 b8bc 7806 07bd af24 90bc
000003f0: 9412 ba3b 479c 91bc c647 fdbc ffea 83ba

q_net.2.weight f4 [128, 256]
0.036652632 0.049842965 -0.018447505 0.026372548 0.0120907435 -0.049076464 0.033850435 -0.017598603
-0.033596765 -0.044439893 0.007880068 0.015611464 -0.066486634 0.050962936 0.02957126 -0.064149976
0.046168223 0.04052534 0.007643161 0.020472137 -0.04161411 0.0049592 -0.0030431503 -0.022709787
-0.05820894 -0.02209401 -0.043367464 -0.06973809 0.036096558 -0.006322278 0.010832976 -0.047808673
-0.009767621 -0.040148687 0.047660943 -0.053000744 0.04010532 0.0038308064 0.014713971 0.03854304
-0.022374265 -0.039613176 0.025516564 0.03193384 0.050326735 -0.015975539 0.009176999 -0.01493373
-0.020755328 -0.02783444 -0.049069658 0.03707935 -0.04939773 0.015985496 -0.010462078 0.014047875
0.047881063 0.0055354824 0.046309587 0.0184306 0.022515938 -0.032370564 0.0051112953 -0.04056015
0.011564586 -0.00978121 -0.062347252 -0.033431344 0.018315747 -0.056434926 0.014536746 0.010647682
-0.05415612 0.017414164 -0.029639155 0.016983349 0.040531516 -0.066004045 -0.004075746 -0.059095755
0.039696064 0.043158904 0.007870838 0.03307643 0.040207405 -0.021671401 0.04017906 -0.04190522
-0.04823938 0.0008760147 -0.055239443 -0.0030405524 0.04713237 -0.008373919 -0.050125528 0.04892278
-0.029923119 0.031236239 -0.04402259 -0.061125074 -0.055792537 0.031505026 -0.027614642 -0.068580106
-0.0655937 -0.00782821 -0.05755908 -0.008447057 -0.06365177 0.048946876 -0.03610445 0.035133503
-0.04451445 0.03967053 -0.010489217 0.003577376 -0.011386075 -0.0048119524 -0.026765995 0.009817506
0.043953907 -0.013283289 -0.034631357 -0.057151046 -0.030924661 -0.047479536 -0.05714605 -0.024812333
-0.020844536 -0.06345939 -0.012656925 0.0225358 -0.065486185 -0.06117725 0.023385258 0.017596865
-0.010144547 -0.043605432 -0.002705149 -0.053604662 0.026235284 -0.019690955 0.005551436 -0.0335798
0.035959993 -0.06801851 0.01207416 0.048436448 0.009713718 0.03163103 -0.05677137 0.01999562
0.014184422 -0.057375275 0.051586412 -0.06542763 -0.054988924 -0.023393124 0.024909046 -0.04094051
0.051957972 0.029899275 -0.033391315 0.0050344984 -0.035678677 0.036267605 -0.031880446 -0.010413988
-0.026493117 -0.035113763 0.047827322 -0.029665304 -0.027901262 0.007900729 0.017114831 -0.061196003
0.0077259587 0.016748643 -0.016264584 0.018445129 0.026855165 0.004112155 0.04665813 0.0007339611
-0.024871293 -0.047488797 -0.032721657 -0.031955216 -0.023317043 0.042638417 -0.045386672 -0.069520056
0.043355357 -0.049142614 -0.022787161 0.020420708 -0.015182063 0.035846986 0.028920932 0.032647226
-0.041459218 0.017548477 -0.055110727 0.006811902 0.05152485 -0.0031100072 0.003355671 0.025847202
-0.017098028 -0.024012854 0.00092924613 0.03373761 0.03970662 0.035479967 -0.047963385 -0.06719933
-0.028098863 0.03144019 0.04424807 0.05165169 -0.059206985 -0.06080029 -0.021604275 -0.0018888061
0.00734099 -0.0654012 -0.022693336 -0.0026554286 -0.028987292 0.047560893 -0.045219183 0.003276713
0.033275623 -0.0039642556 -0.05657735 0.045257654 -0.049826417 -0.00012543185 0.008833128 -0.004789271
-0.030479394 -0.006912124 -0.054864794 -0.031346712 -0.0044193016 -0.03887853 -0.055628087 0.007877035
0.010812866 -0.046772588 0.012045017 0.038561914 -0.007735939 -0.06894133 -0.048222203 -0.009169246
00000000: 1221 163d 2328 4c3d 391f 97bc 3e0b d83c
00000010: 4118 463c 6704 49bd c1a6 0a3d f22a 90bc
00000020: c39c 09bd 9b06 36bd 671b 013c 3ac7 7f3c
00000030: 252a 88bd 83be 503d 6d3f f23c 1061 83bd
00000040: e41a 3d3d e6fd 253d 7b73 fa3b 2fb5 a73c
00000050: 8f73 2abd c980 a23b 976f 47bb e009 babc
00000060: 7f6c 6ebd 7ffe b4bc 15a2 31bd d8d2 8ebd
00000070: fcd9 133d 1d2b cfbb cb7c 313c 07d3 43bd
00000080: 5f08 20bc f372 24bd 1f38 433d 4f17 59bd
00000090: 7a45 243d 440e 7b3b de12 713c 4fdf 1d3d
000000a0: 3c4a b7bc 6d41 22bd 1d08 d13c 0fcd 023d
000000b0: 6823 4e3d 22df 82bc 205b 163c 9aac 74bc
000000c0: 1407 aabc 0d05 e4bc 44fd 48bd 84e0 173d
000000d0: 4655 4abd 04f4 823c 2369 2bbc 0f29 663c
000000e0: ef1e 443d fe62 b53b 1faf 3d3d c5fb 963c
000000f0: 5873 b83c ff96 04bd a77c a73b 6622 26bd
00000100: 6479 3d3c 5e41 20bc d55f 7fbd 4eef 08bd
00000110: e80a 963c 4f28 67bd 882b 6e3c 9d73 2e3c
00000120: cfd2 5dbd 26a8 8e3c d0cd f2bc aa20 8b3c
00000130: 6004 263d 212d 87bd d68d 85bb 640e 72bd
00000140: 5798 223d 64c7 303d b0f4 003c 277b 073d
00000150: 85b0 243d 3988 b1bc cc92 243d cfa4 2bbd
00000160: a896 45bd 5aa4 653a c142 62bd 0144 47bb
00000170: df0d 413d c332 09bc 6d50 4dbd 4163 483d
00000180: 5421 f5bc 24e3 ff3c 0851 34bd 495e 7abd
00000190: b786 64bd 6a0b 013d 1a38 e2bc ba73 8cbd
000001a0: fd55 86bd e441 00bc 12c3 6bbd 8665 0abc
000001b0: dc5b 82bd 857c 483d 42e2 13bd 26e8 0f3d
000001c0: c954 36bd 917d 223d f7da 2bbc 6972 6a3b
000001d0: a98c 3abc 95ad 9dbb 5c44 dbbc 9bd9 203c
000001e0: 0309 343d 27a2 59bc 9cd9 0dbd 3717 6abd
000001f0: b755 fdbc e779 42bd fa11 6abd 3c43 cbbc
00000200: 29c2 aabc fff6 81bd fe5e 4fbc ff9c b83c
00000210: 9f1d 86bd ff94 7abd 7192 bf3c 4d27 903c
00000220: 5035 26bc 9c9b 32bd de48 31bb 9090 5bbd
00000230: 61eb d63c ed4e a1bc d2e8 b53b f98a 09bd
00000240: c94a 133d 4a4d 8bbd b3d2 453c 4c65 463d
00000250: 4926 1f3c 8a8f 013d 1989 68bd dbcd a33c
00000260: c765 683c 5602 6bbd 464c 533d ecfe 85bd
00000270: 113c 61bd f0a2 bfbc 0e0e cc3c 3cb1 27bd
00000280: e2d1 543d 53ef f43c 55c5 08bd 6ff8 a43b
00000290: ce23 12bd 578d 143d 1295 02bd 6e9f 2abc
000002a0: 1808 d9bc 73d3 0fbd 95e6 433d a704 f3bc
000002b0: 3091 e4bc 0f72 013c 6734 8c3c a9a8 7abd
000002c0: 0a2a fd3b 7334 893c 4e3d 85bc 3d1a 973c
000002d0: 5dff db3c 42bf 863b 981c 3f3d 4c67 403a
000002e0: e2be cbbc 9d83 42bd 2507 06bd 79e3 02bd
000002f0: 6203 bfbc 9fa5 2e3d 60e7 39bd 8860 8ebd
00000300: 6395 313d c449 49bd 24ac babc 5449 a73c
00000310: 30be 78bc 4ad4 123d 97eb ec3c 19b9 053d
00000320: 24d1 29bd d3c1 8f3c c9bb 61bd 6036 df3b
00000330: b90b 533d 43d1 4bbb d1ea 5b3b 83bd d33c
00000340: 2a11 8cbc 9bb6 c4bc a798 733a 7330 0a3d
00000350: 69a3 223d 7153 113d 4175 44bd cd9f 89bd
00000360: 962f e6bc 6ec7 003d 773d 353d b990 533d
00000370: 0683 72bd ba09 79bd 73fb b0bc d191 f7ba
00000380: b08c f03b 10f1 85bd 60e7 b9bc b306 2ebb
00000390: c276 edbc 36cf 423d c037 39bd 1fbe 563b
000003a0: 054c 083d 96e6 81bb a7bd 67bd 1760 393d
000003b0: c916 4cbd 5b86 03b9 d3b8 103c 51ef 9cbb
000003c0: ecaf f9bc 197f e2bb e8b9 60bd 6965 00bd
000003d0: cacf 90bb 183f 1fbd 47da 63bd ae0e 013c
000003e0: 7228 313c 9d94 3fbd 7758 453c 19f3 1d3d
000003f0: c37d fdbb 1d31 8dbd a584 45bd 9b3a 16bc

q_net.2.bias f4 [128]
-0.06143948 -0.03779038 -0.06594299 0.002823356 -0.05631362 0.051286794 0.003965607 0.012823468
-0.019173516 0.067037426 -0.019803798 0.0064269234 0.04164598 -0.030288547 -0.022154966 0.048661742
-0.053410098 -0.00895294 -0.027554935 0.06382478 -0.052008912 0.0023856116 0.05262566 0.04209803
0.03743704 -0.04576842 0.022644712 0.03355029 0.048229303 0.050581757 0.05209542 0.045760572
-0.050439443 0.03154895 -0.029124675 -0.015858479 -0.040318042 0.028721645 -0.011081819 0.07265733
0.04159729 0.0672059 -0.005355637 -0.060836997 -0.0024953927 -0.00076863787 -0.04148789 -0.044324286
0.03519876 -0.056185145 0.01562061 0.0068247775 0.051180277 0.06284413 0.031093467 -0.008347681
-0.043625064 0.0053963684 0.021176953 -0.044511653 -0.046700522 -0.046128284 0.0806836 0.040042326
-0.026929423 -0.00483741 -0.03928331 -0.035759084 0.033866104 0.071336046 0.05529677 -0.028391482
0.04773618 -0.028140482 0.03426109 -0.03859179 0.032504335 -0.063830435 -0.067245394 0.058300998
0.013264101 0.03739708 0.03417402 -0.016896822 -0.04910272 0.055347867 0.05125825 0.0024148084
-0.05115213 0.048218876 0.020244993 0.05350864 -0.041643888 -0.03726742 0.056253154 -0.006743248
0.026387496 -0.0029299788 0.010191389 -0.022187993 -0.06387042 0.04643394 0.005545809 0.030595068
-0.0479478 0.0136056 -0.050553303 -0.017204082 -0.045533877 0.033789422 -0.049006637 -0.019630976
-0.050968684 -0.005870363 0.048768636 -0.033171896 -0.019900052 -0.027452163 -0.036582034 -0.0030580978
-0.013704284 -0.0039278595 -0.055932555 -0.03167452 0.013919566 -0.0086771855 0.06485729 0.040297296
00000000: f7a7 7bbd 16ca 1abd 1e0d 87bd 0e08 393b
00000010: 1ca9 66bd 1a12 523d ecf1 813b 8619 523c
00000020: c711 9dbc eb4a 893d 933b a2bc f198 d23b
00000030: fa94 2a3d b01f f8bc 557e b5bc 8951 473d
00000040: 8cc4 5abd 5aaf 12bc e3ba e1bc 91b6 823d
00000050: 4c07 55bd ec57 1c3b 018e 573d fc6e 2c3d
00000060: 9557 193d ab77 3bbd 6781 b93c 076c 093d
00000070: 178c 453d d12e 4f3d 0262 553d 706f 3b3d
00000080: 9799 4ebd 7939 013d df96 eebc a4e9 81bc
00000090: 8824 25bd a849 eb3c 8590 35bc 5ecd 943d
000000a0: ec61 2a3d 3fa3 893d 577e afbb 3730 79bd
000000b0: be89 23bb 6a7e 49ba 35ef 29bd 628d 35bd
000000c0: 932c 103d 6522 66bd 96ed 7f3c 62a2 df3b
000000d0: 69a2 513d 6cb4 803d bab7 fe3c b6c4 08bc
000000e0: 32b0 32bd 05d4 b03b 4a7b ad3c da51 36bd
000000f0: 0c49 3fbd 03f1 3cbd 713d a53d 6c03 243d
00000100: 189b dcbc 2383 9ebb 89e7 20bd 1e78 12bd
00000110: 2fb7 0a3d a218 923d de7e 623d 4195 e8bc
00000120: 0387 433d de86 e6bc 5b55 0c3d 6d12 1ebd
00000130: 4423 053d 88b9 82bd f4b7 89bd 07cd 6e3d
00000140: ac51 593c ae2d 193d 0ffa 0b3d 346b 8abc
00000150: ef1f 49bd 72b4 623d 2cf4 513d c341 1e3b
00000160: e584 51bd 2881 453d d4d8 a53c e02b 5b3d
00000170: c892 2abd b9a5 18bd b569 663d 77f6 dcbb
00000180: 972a d83c e304 40bb c9f9 263c 98c3 b5bc
00000190: 7fce 82bd 8431 3e3d 9eb9 b53b 82a2 fa3c
000001a0: ea64 44bd 06ea 5e3c fb10 4fbd 93ef 8cbc
000001b0: bb81 3abd c766 0a3d 2fbb 48bd 24d1 a0bc
000001c0: 8ac4 50bd 2d5c c0bb 9fc1 473d 41df 07bd
000001d0: 6f05 a3bc 5ce3 e0bc 0bd7 15bd 5e6a 48bb
000001e0: ef87 60bc 46b5 80bb 8919 65bd 24bd 01bd
000001f0: e40e 643c c12a 0ebc e6d3 843d c70e 253d

q_net.4.weight f4 [1, 128]
-0.0067690527 0.07050243 -0.0013354314 -0.0011178236 -0.06863762 0.07553395 -0.09955025 -0.0045497594
0.038417332 0.076711126 -0.003382361 0.06868493 0.010763124 0.042318944 0.0044473093 0.03936067
-0.05738995 0.011032399 -0.03392502 0.03690168 -0.035023402 0.00060004345 0.06415402 -0.011589126
-0.027831046 0.05209341 0.07994529 -0.01149748 0.07652459 -0.08675836 -0.038112856 -0.08800907
-0.047189064 0.039091103 0.060636986 0.051172018 -0.042206287 0.0007889581 -0.05354498 0.053246826
0.07871772 0.082981095 -0.037240833 -0.07911953 -0.010223797 -0.07180744 -0.051252045 0.076241724
0.034199167 -0.040371094 0.08014282 -0.05974116 0.08237177 0.011236144 0.054446984 -0.06202492
-0.062129375 -0.008112826 -0.06078356 -0.0063355453 -0.0730412 0.021999743 0.06106581 -0.03980485
-0.00029769764 0.03948309 -0.05463827 0.027448867 -0.06456711 0.046154603 0.047437433 0.058841158
-0.08154391 0.0004919021 -0.0118431775 0.053323753 -0.0659549 -0.075800195 -0.076420546 0.06300117
-0.07589081 -0.047249924 -0.043776765 0.04378723 0.059277352 0.050784703 -0.04540797 -0.03225313
-0.01775313 -0.0385858 0.042668104 0.016933346 0.029957796 0.07847785 0.023427099 0.075519316
-0.073807165 0.055111498 -0.026222298 -0.07410138 -0.023048073 0.0070873043 0.06277979 0.08028634
-0.07285551 0.0062066773 0.011806097 0.042198792 -0.02145839 0.0011242748 0.008963498 -0.020152342
0.007846933 0.007119107 -0.061143532 0.06728576 -0.064959064 -0.077803865 -0.05321937 0.034115966
-0.012306955 0.08866407 -0.048906658 0.08622115 0.078711934 0.031214649 0.07508089 0.017962556
00000000: eece ddbb 9463 903d a409 afba f083 92ba
00000010: e191 8cbd 8bb1 9a3d 00e1 cbbd 2616 95bb
00000020: 7e5b 1d3d b91a 9d3d 9aaa 5dbb afaa 8c3d
00000030: d057 303c a156 2d3d bcba 913b a738 213d
00000040: b911 6bbd 3cc1 343c f6f4 0abd 3726 173d
00000050: b374 0fbd 3c4c 1d3a 2f63 833d 51e0 3dbc
00000060: effd e3bc e65f 553d 5bba a33d ed5f 3cbc
00000070: edb8 9c3d 5eae b1bd 3a1c 1cbd 193e b4bd
00000080: 5249 41bd fe1d 203d 7d5e 783d c099 513d
00000090: 80e0 2cbd 15d2 4e3a fb51 5bbd 5819 5a3d
000000a0: c236 a13d fef1 a93d d889 18bd 6c09 a2bd
000000b0: b681 27bc c70f 93bd aaed 51bd 9f24 9c3d
000000c0: 6d14 0c3d 295c 25bd eb21 a43d 26b3 74bd
000000d0: 88b2 a83d ce17 383c cd03 5f3d d80d 7ebd
000000e0: 5f7b 7ebd a9eb 04bc 2ff8 78bd 689a cfbb
000000f0: a096 95bd ce38 b43c 2520 7a3d 690a 23bd
00000100: 4d14 9cb9 05b9 213d 61cc 5fbd 72dc e03c
00000110: c33b 84bd 9c0c 3d3d c14d 423d 6d03 713d
00000120: 7e00 a7bd fef2 003a e309 42bc 026a 5a3d
00000130: 5d13 87bd 223d 9bbd 6082 9cbd c206 813d
00000140: a46c 9bbd 2389 41bd 444f 33bd 3d5a 333d
00000150: cfcc 723d 9f03 503d b5fd 39bd dc1b 04bd
00000160: 036f 91bc 250c 1ebd c0c4 2e3d cdb7 8a3c
00000170: 0d6a f53c ffb8 a03d 30ea bf3c dfa9 9a3d
00000180: 3628 97bd 98bc 613d 25d0 d6bc 77c2 97bd
00000190: 50cf bcbc 9e3c e83b b192 803d 2a6d a43d
000001a0: 4535 95bd 6261 cb3b 5c6e 413c a4d8 2c3d
000001b0: 81c9 afbc 675c 933a a3db 123c 8616 a5bc
000001c0: 6c90 003c 6647 e93b a471 7abd 1ecd 893d
000001d0: 4209 85bd a257 9fbd 8efc 59bd 2fbd 0b3d
000001e0: 1ca3 49bc 8295 b53d 5952 48bd b794 b03d
000001f0: b933 a13d ddb5 ff3c 02c4 993d 3626 933c
