models/youtube_dqn.pth (torch, 742469 bytes, 5 tensors)

q_net.0.weight f4 [256, 592]
000000 74 47 58 3c e3 6b 06 bd 12 48 87 bc 42 3e cc bc
       0.0132006295 -0.032817733 -0.016513858 -0.02493203
000010 c6 e6 83 3c e3 a2 38 bc 9a 2d 31 bc 57 72 d4 3b
       0.016101252 -0.011269304 -0.010814095 0.006483357
000020 6b b4 7f bb 14 cb 0b 3c e8 03 09 bd d1 94 9b 3c
       -0.003901745 0.008532304 -0.03345099 0.01899186
000030 46 90 da 3b 56 1f 6f bc 6c 70 30 3d ae 6a 39 ba
       0.0066700308 -0.014594873 0.043075964 -0.00070730865
000040 23 90 b9 bc 0c f2 cf bc 10 25 48 3b 12 23 f7 bc
       -0.022651738 -0.025383972 0.003053967 -0.03016809
000050 18 22 d9 3c d2 88 f8 3b 60 66 ac bc 50 e4 03 bd
       0.026505515 0.0075846696 -0.02104491 -0.032200158
000060 39 d2 e3 3c 4e e5 09 bd 85 e6 c0 bc ef 1b cd 3a
       0.027810203 -0.033665948 -0.02354742 0.0015648584
000070 fd 99 ad 3c 40 43 d1 bb e3 86 4d 3c 7d eb c5 bb
       0.021191591 -0.0063861907 0.0125443665 -0.0060400353
000080 88 1c 67 bb 6b 38 01 3d 13 29 a3 bc 17 13 f1 bc
       -0.0035264809 0.031547945 -0.019917047 -0.029428048
000090 60 26 ad 3c e1 30 fb 3c 85 56 26 bd e6 c0 5f bc
       0.021136463 0.030662956 -0.040609855 -0.01365683
0000a0 31 d8 7f bd 1c 06 05 bc e2 d2 c2 bc 1b e6 d1 bc
       -0.062462036 -0.008119132 -0.023782197 -0.025622418
0000b0 0a 23 1e bd f6 fb 0d 3c ee cb 4d bc d7 db ec 3c
       -0.038607635 0.008666029 -0.012560828 0.028913422
0000c0 38 6e d7 ba ef 39 e5 bc 7d db b0 3b cf a5 09 3d
       -0.0016436046 -0.027981726 0.005397259 0.033605393
0000d0 65 d9 d3 bb de c2 01 3d d7 13 06 3c a8 7d c3 3c
       -0.0064651244 0.03167998 0.008183441 0.023863629
0000e0 9f 0e 14 3d 62 32 53 bc c0 e7 91 3b 4a 5b 8f 3c
       0.036146756 -0.01289043 0.0044526756 0.017499585
0000f0 c5 f9 18 3d 57 49 84 bc 17 5f 6d bc 41 ff e9 ba
       0.037347574 -0.016148252 -0.014488003 -0.0017852561
000100 c3 c5 93 3b 7a fe 17 bc 51 2d 0d bd 56 66 2f bd
       0.004509659 -0.0092769805 -0.034467045 -0.042822205
000110 00 1d 89 3c 54 4b fa 3c 5c 90 e3 bc 48 b7 b9 bc
       0.016737461 0.030553497 -0.027778797 -0.022670403
000120 5e 25 06 3d 95 a2 8e bc b1 ca 84 3c 7d 46 32 bd
       0.03275048 -0.01741151 0.016209932 -0.043524254
000130 a8 22 24 bd de e1 2c bc 7d 4e 28 3d fc ee c1 bc
       -0.040072113 -0.010551898 0.041090477 -0.023673527
000140 6c ee 81 3c 3f e0 c3 3c 6c ac 01 bc 1a dd 1d 3d
       0.015860759 0.02391064 -0.007914644 0.038540937
000150 fd c6 c1 3c 30 c8 f2 bb 82 f5 17 3d 6c a5 9b bc
       0.023654455 -0.007409118 0.03709937 -0.018999778
000160 cc 86 fd bc a1 e1 95 3c dd 29 12 bd e2 60 a3 3c
       -0.030948065 0.018296065 -0.035684455 0.019943658
000170 e3 1f f0 bc ef 23 ca 3b ce f2 e7 bc bd c8 8f 3c
       -0.02931208 0.0061688344 -0.02831402 0.017551774
000180 85 6f 81 bc 62 e7 1c 3c 21 13 85 3a e4 e1 4f bd
       -0.015800247 0.00957665 0.0010152796 -0.050752535
000190 6b f1 db bb b0 dd 42 3c 1c 35 d9 bc 8e b1 c9 bc
       -0.006712129 0.011893675 -0.026514582 -0.024620797
0001a0 c0 d0 1e bd a0 1d 27 bc 2b 43 e0 3c 89 02 0a bd
       -0.0387733 -0.010199934 0.027375778 -0.033693824
0001b0 6b dd 2e 3c c5 32 fb 3c 5b b9 9c 3c 78 ed 27 3c
       0.010672907 0.030663857 0.019131353 0.010249488
0001c0 72 df 22 3c 23 d0 bb 3c 8f 85 f2 bc 72 75 82 bc
       0.009940969 0.022926396 -0.029604701 -0.015925143
0001d0 dc dd b1 3b 12 cb ce bc 38 7a 57 3c 77 20 99 bc
       0.005428059 -0.025243316 0.013151698 -0.018692238
0001e0 2c 4a d5 3c 86 61 a7 3c e4 69 ea 3c bc 92 16 3d
       0.026036344 0.020432245 0.028614946 0.03676103
0001f0 7f fa 6b bc 90 c1 ae 3c 52 d9 d5 bc 21 07 86 bc
       -0.014402985 0.021332532 -0.026104603 -0.016360821
000200 af 9c 3b bb 39 03 05 bd cc 7e b6 bc 16 97 16 bd
       -0.0028627326 -0.032473776 -0.022277258 -0.03676518
000210 b4 16 40 bc 6b 20 65 bd 01 1d f4 bb 22 37 02 3d
       -0.011724163 -0.05593912 -0.0074497466 0.03179086
000220 bb ce 3d bd f4 4b 92 bb 6d 16 18 3d de 08 1f bd
       -0.04633973 -0.0044646207 0.037130762 -0.038826816
000230 54 27 82 3c 15 79 ae bb b1 64 15 bd 64 f7 bf 3c
       0.015887894 -0.0053244927 -0.03647298 0.023433395
000240 60 e0 47 3d 62 cd 06 3d 3d af f6 3c 36 1a 90 3b
       0.048797965 0.032910712 0.030112857 0.004397656
000250 bb fa 78 bb 55 ff 12 bd 12 51 c8 bc 9a 2a 81 bb
       -0.0037991244 -0.035888035 -0.02445272 -0.003941846
000260 5e 57 94 3c f4 56 1e 3d 9d 9d 88 bc 67 02 9e bc
       0.018108066 0.038657144 -0.016676718 -0.019288255
000270 ee c0 4e 3c 22 69 27 3c 93 81 7d 3b b2 fb 0b 3d
       0.01261924 0.010217937 0.0038681969 0.034175582
000280 8b cc 43 3b 43 19 d0 3c 5b 0e ea bb 06 6b ab 3c
       0.0029876556 0.02540267 -0.0071428246 0.020925056
000290 54 d4 4c bc 4f 32 e1 bc 4d 40 c4 bc 14 49 0a bd
       -0.012501795 -0.02748981 -0.023956442 -0.0337611
0002a0 ae dc 00 3d 14 cc 07 bd 1c 37 3c bc aa 30 10 3d
       0.031460457 -0.03315361 -0.0114877485 0.03520266
0002b0 ad af 76 3b ef ae a0 bc 76 4b 17 bd b8 de ab b8
       0.0037641332 -0.019614665 -0.0369372 -8.1954e-05
0002c0 09 fa b0 3c 9f 9b e6 bc 4c 7a af bc 87 87 29 bd
       0.021603601 -0.028150378 -0.02142062 -0.041389015
0002d0 3e 8b 1f bc 48 21 9f bc 66 5d 9e bc 3d 1a 1e bd
       -0.009737788 -0.01942505 -0.019331645 -0.03859924
0002e0 b8 a2 ab bc 83 d0 47 3b d7 a0 d9 bc ab a8 fa 3c
       -0.020951614 0.0030489273 -0.026565952 0.030598005
0002f0 da 0a c3 3b 04 16 8a 3c 4b 50 6f bd 1b 24 05 ba
       0.0059522213 0.016856201 -0.058426183 -0.00050789275
000300 5e 36 1b 3c 26 cb b3 bc 22 24 24 bd 00 f7 04 bd
       0.009473411 -0.021947455 -0.04007352 -0.03246212
000310 26 4a 05 bd 99 13 96 3c 45 bf 6b bc be 3f 8a 3c
       -0.032541417 0.018319892 -0.014388864 0.016876098
000320 7b b6 38 bd a5 a6 32 bd f3 57 ca bc 1b 0b 1f bd
       -0.045095902 -0.043615956 -0.02470014 -0.03882895
000330 b9 3f 0c 3d 85 fc 2b bb 47 01 5c 3c b6 19 fa bb
       0.03424046 -0.0026243043 0.013428039 -0.0076324595
000340 5e 4e 9a 3c 68 17 f9 3c 7f 12 95 bc f2 9e fc bc
       0.018836197 0.030406669 -0.018197296 -0.03083751
000350 f5 df 20 bd ee f3 b8 3c e7 1a 6c bb 0a 6f 86 3c
       -0.039276082 0.022577252 -0.0036026777 0.01641037
000360 ff 98 a4 3a e7 b5 79 3b dc 1b 0f 3c 8d b6 a6 bc
       0.0012557803 0.0038102807 0.00873467 -0.020350719
000370 dc b6 08 3d dc aa e6 3c 30 cd b5 bc eb cb 8e 3c
       0.033377513 0.028157644 -0.022192568 0.01743122
000380 4c f3 d5 ba 0e af 3e 3c 9e 7d d1 3c 73 de 4d bc
       -0.0016323118 0.011638416 0.025572594 -0.012565243
000390 2c 0f 94 3b 61 82 b6 3c f3 8d 25 bc a5 66 b4 3c
       0.00451841 0.022278966 -0.010104644 0.022021601
0003a0 c6 40 88 bc 0c ff 51 3d d8 aa 0e 3b 20 e4 f8 3b
       -0.016632449 0.051268622 0.0021769311 0.007595554
0003b0 45 17 b4 3c c9 88 d6 3b 5e 21 db bc 36 2b 34 bd
       0.021983752 0.006547068 -0.02674931 -0.04398652
0003c0 19 26 f1 39 02 c0 f7 3c be 3c b6 bc 8c a0 03 bd
       0.00045995487 0.030242924 -0.022245761 -0.03213553
0003d0 9c 86 95 3a 4a 00 19 bb 4f de e1 3c 65 a1 c2 ba
       0.0011407915 -0.002334612 0.027571825 -0.0014849125
0003e0 2b 9d 4f 3c 33 d8 80 3b 8b 83 26 3c 46 c6 0b 3c
       0.012671749 0.003932023 0.010163198 0.008531159
0003f0 cc 87 06 bd bf b3 bb 3c 4e 50 08 3d e9 5e 35 3b
       -0.03284435 0.022912858 0.03327971 0.002767498

q_net.0.bias f4 [256]
000000 23 67 61 bd f4 fd 5f bd 5b b3 36 bc fe cd 53 3c
       -0.05503 -0.054685548 -0.01115116 0.01292753
000010 90 1c 56 bb 07 11 e0 bb da f1 e1 3b d8 c3 10 bd
       -0.0032670833 -0.0068379673 0.006895286 -0.03534302
000020 4a d1 d9 39 e0 11 92 3c 74 13 7c 3b a9 61 14 bd
       0.00041545398 0.01783079 0.0038463743 -0.03622595
000030 17 cb 79 3c 09 1e 59 3c 62 f9 4a bd 2e be 12 bd
       0.015246174 0.01325179 -0.049554236 -0.0358259
000040 0c fb 05 bd f8 23 58 bd 65 69 f6 bc 8c 3a b2 3c
       -0.03271012 -0.052768677 -0.030079553 0.021756433
000050 7d ed bb bc 3a 8b 3f 3c fc 8d e2 bb 62 49 a4 bc
       -0.022940392 0.011690909 -0.0069138985 -0.020054523
000060 11 78 9c bc 31 1d 9d bb 2a ca fb bb 37 ef 89 bc
       -0.01910022 -0.0047947397 -0.007684012 -0.0168377
000070 ec 0b 8c 3c ab fd 8d bb 3b 83 af bb 6c f0 75 bd
       0.017095529 -0.004333218 -0.00535622 -0.060043737
000080 c6 32 21 bd 5c 3b 86 bc 3b b5 96 bb 7e 23 1b bd
       -0.039355062 -0.016385727 -0.004599241 -0.037875645
000090 19 c4 21 bd 13 4f d5 3c c6 56 35 bd a8 a6 10 bd
       -0.039493654 0.026038682 -0.044272207 -0.035315186
0000a0 b7 3d 8c bc aa ab 19 bd 13 8e 0c bb 09 62 19 bd
       -0.017119272 -0.037517227 -0.0021446988 -0.03744701
0000b0 d3 8f fb bb 48 9d db bc 45 6c 79 bc 7b 65 4c 3d
       -0.0076770573 -0.026808396 -0.015223567 0.049901467
0000c0 a0 7f ca bc fb 97 3e 3d ac 22 7c bc e8 a6 33 bd
       -0.02471906 0.04653166 -0.015389126 -0.043860346
0000d0 c8 0b 6f 3c 95 63 f3 bb 71 a6 4e ba 3d bc 4e 3d
       0.014590211 -0.0074276426 -0.0007883078 0.050472487
0000e0 ea 87 7b 3c 31 13 ae 3b 8e a3 c8 3c d8 eb 43 3c
       0.015352229 0.0053123464 0.024492051 0.011958085
0000f0 18 21 19 bc 35 2a ae 3c 86 00 53 bb d2 17 18 bc
       -0.009346269 0.02126036 -0.0032196357 -0.009283023
000100 a9 3e 3a bd 71 87 65 3b 0d 49 ee 3c 66 91 60 3c
       -0.045469914 0.0035023356 0.029087568 0.013706541
000110 54 40 83 3c bf 88 06 bd b8 72 45 bd 92 5d 8e bc
       0.016021885 -0.032845255 -0.048205107 -0.017378602
000120 43 8d 01 3c 67 47 aa ba 25 e3 34 3c a0 78 6d bb
       0.007907215 -0.001299125 0.011040484 -0.0036235228
000130 17 b9 e3 bb 68 2d c3 bc 9c 68 e3 bb fe 7e 6c 3b
       -0.0069495547 -0.023825362 -0.0069399606 0.0036086435
000140 9c 7d 40 3c 5f 5a 0f bc 0c cd f8 bc 23 79 23 3d
       0.011748698 -0.0087495735 -0.030371211 0.039910447
000150 9b f7 17 3d e8 79 4e bc 56 c8 7f bb af 84 47 bc
       0.03710137 -0.012602307 -0.0039029322 -0.01217763
000160 c2 a9 35 bc 20 97 53 bd 85 33 0c 3c da 60 09 bd
       -0.011087837 -0.051657796 0.008557205 -0.03353963
000170 7a 49 62 3c 63 b2 04 3d 70 d5 fa bc ea 98 7b bb
       0.0138114635 0.032396685 -0.030619353 -0.0038390704
000180 9c 3e 2c bd d1 4e d0 3c 41 31 0a 3d 7d 78 f4 bc
       -0.042051896 0.025428208 0.03373838 -0.02984261
000190 d6 07 22 3c 97 e9 2e ba 1e d7 79 bd 59 21 cc 3c
       0.009889564 -0.0006672381 -0.060996167 0.024918245
0001a0 d5 0d 4a 3c c0 0e 50 3c 49 f7 92 3c d1 34 0b bd
       0.012332399 0.012698829 0.01794018 -0.033985917
0001b0 4b ef 31 3d e8 50 16 3d 4a 47 f9 bc 11 6d ed bb
       0.0434411 0.036698252 -0.030429501 -0.0072456677
0001c0 3e e3 22 3d 99 e9 0a bd 51 91 0f bd 14 f6 bd 3c
       0.039767496 -0.033914182 -0.035050694 0.023188628
0001d0 4a 6e 4f bd 71 8b 8c bc 59 02 29 3d 46 6e c0 3b
       -0.05064229 -0.017156335 0.041262005 0.0058725206
0001e0 f6 d6 75 bd 84 33 3a bd 95 0d a1 bb 14 c9 d3 bc
       -0.060019456 -0.045459285 -0.004914949 -0.025852717
0001f0 9a 70 67 3d 8c e6 bf 3c 24 d3 a8 bc b7 17 00 bd
       0.05650387 0.023425363 -0.020608492 -0.031272616
000200 48 d1 a3 3c 4b 61 61 bd 2b 4a a9 3b f7 5c 2e bd
       0.019997254 -0.055024426 0.005166312 -0.042569127
000210 30 bb 83 bb 2e 1d d4 3c 29 03 d2 3c dc 43 e5 ba
       -0.004020117 0.02589282 0.025636273 -0.0017491537
000220 8e b2 8d 3c bc 7b 1d bb c6 74 5c bd df 53 c8 bc
       0.017297056 -0.002403005 -0.0538223 -0.024454055
000230 c2 53 70 3c 82 d0 86 3c 54 95 b4 bc 59 5a 09 bc
       0.014668407 0.016456846 -0.022043861 -0.008383357
000240 2e 07 ee bc 85 ca b3 3c 25 a4 bf bc bc ce c5 3c
       -0.029056158 0.021947155 -0.0233937 0.02414643
000250 ea 45 14 bd d0 32 f8 bc a5 ba 82 bc c0 bb 16 3d
       -0.036199488 -0.030297667 -0.01595814 0.036800146
000260 10 86 87 3c df 8e 21 3c 78 39 0f bd 71 50 64 3d
       0.016543418 0.009860723 -0.034966916 0.055740777
000270 17 bd d3 bc 8b b1 b9 3c 11 95 c4 3b 4f ad 0d bd
       -0.025847001 0.022667667 0.0059992154 -0.034589108
000280 cc e8 03 bd dc 41 82 3c 00 19 40 3a c8 36 01 bc
       -0.032204434 0.015900545 0.0007327944 -0.007886596
000290 ce 85 74 bc d7 6e 99 3c 46 17 85 bd fb ee a2 bc
       -0.01492448 0.01872961 -0.0649858 -0.019889345
0002a0 95 47 a4 bc 8b 27 1a 3d 9c 95 00 bd 9a 11 70 bc
       -0.020053664 0.037635367 -0.03139268 -0.014652634
0002b0 e3 a5 48 bc 18 b9 60 3c 44 18 c8 bb 8d ae 30 3d
       -0.012246582 0.013716005 -0.0061064083 0.043135215
0002c0 48 61 b6 bc 76 b7 41 3d 13 4c e8 bc cb 61 2d 3d
       -0.022263184 0.047294103 -0.028356588 0.04232959
0002d0 81 8e 10 bd ed 07 3d bd 2f 6c d7 bb b5 6e a2 bc
       -0.035292152 -0.046150137 -0.006574176 -0.01982818
0002e0 6a cf 34 3d 45 6a 3f 3c ce 72 9c 39 5d bb 23 3c
       0.044143118 0.0116830515 0.00029840175 0.009993401
0002f0 c4 76 dc bc 02 21 08 bc 85 0c 33 bd b0 7d ad bc
       -0.0269121 -0.008308651 -0.04371311 -0.021178097
000300 6b 5c a3 3c d5 31 2e bd ce 9d 02 3d 84 23 c8 3b
       0.01994153 -0.042527992 0.031888776 0.0061077494
000310 ec 79 ac bb 71 dc 88 bc 81 77 1d 3c 48 b1 3c bd
       -0.0052635577 -0.016706677 0.0096110115 -0.046067506
000320 54 6c 25 3d 11 e6 92 bc 22 45 b0 bc d4 d3 57 3c
       0.040386513 -0.01793197 -0.02151734 0.013173062
000330 a8 72 a9 bc 3b 73 94 3c 77 91 be bb 9e 26 ea ba
       -0.020684555 0.018121352 -0.0058156806 -0.0017864292
000340 41 f0 1a bd 04 bd d6 bc 42 69 8e bc bb 3f aa 3b
       -0.03782678 -0.026213177 -0.017384175 0.0051955855
000350 10 cf 68 bc 3c 5d 20 bd c6 60 38 bc ba 62 17 bd
       -0.014209524 -0.039151415 -0.011253541 -0.036959387
000360 a4 8a 5a 3b 34 cf 18 bd c9 29 15 3c bb e7 ad 3c
       0.0033346796 -0.03730698 0.009104201 0.021228662
000370 a6 0d 35 bd 0f 15 08 3c eb 6e 0f 3d fd ea f6 3c
       -0.04420247 0.008305802 0.03501789 0.030141348
000380 52 f7 5d 3b f9 fe 26 3c 3d 8f 07 bd 88 a4 b1 39
       0.0033869338 0.010192626 -0.033095587 0.00033882656
000390 7e eb fb bb 24 75 97 bc 65 68 2d 3d a3 14 0a bd
       -0.007687985 -0.018488474 0.042335887 -0.033711087
0003a0 c0 d9 22 3c e5 9f 83 bd 5a c5 04 3b 13 55 b1 3c
       0.009939611 -0.06426982 0.0020259232 0.021647012
0003b0 b6 28 2e 3c 3c 31 de bc 57 b2 51 bd d1 0d 7c bc
       0.010629823 -0.027123086 -0.05119547 -0.015384153
0003c0 62 a0 b5 3c 46 00 4a bb 29 07 16 3b 01 09 a2 bc
       0.022171203 -0.0030822917 0.0022892451 -0.019779684
0003d0 80 2e d3 3c 94 06 a8 3c 5f 3a 9e bc 9b 29 3d bc
       0.025779009 0.02051095 -0.019314943 -0.011545564
0003e0 c6 c1 1e 3c e8 32 a0 bc 89 d5 96 bc 4e d9 28 3d
       0.009689754 -0.019555524 -0.018412368 0.041222863
0003f0 db f4 ad bc 3b ec 33 bd d1 3c 32 bc ce b7 c7 3c
       -0.02123492 -0.04392646 -0.010878758 0.024379637

q_net.2.weight f4 [128, 256]
000000 3f 0d d2 bb 3a 9f a6 3c 0c 56 cd bb 07 0f da bc
       -0.0064102705 0.020339597 -0.006266361 -0.026618494
000010 95 78 fd bb 49 5e 30 3d db 52 79 bd 07 22 ef 3c
       -0.0077353218 0.043058667 -0.060870033 0.02919103
000020 6b fb a2 bc 10 af 85 3d 75 11 8d 3c f4 1c 1b bd
       -0.019895276 0.06527531 0.017220238 -0.03786941
000030 5d bd 14 bb 6f d3 06 bc 08 b4 6f bc ea f3 83 3c
       -0.0022695877 -0.008229121 -0.014630325 0.016107518
000040 44 de 96 3c e1 dd d4 3c fb 77 4a bd 89 b0 de 3c
       0.018416531 0.025984706 -0.04943083 0.027183788
000050 5a 5d 0f bd 1d 89 13 3d 02 e4 d8 3c 95 01 79 3d
       -0.035001136 0.036019433 0.02647591 0.060792524
000060 f1 ad 1c 3d 0b 80 2f 3d da 5d 08 bc 90 9d c5 3c
       0.03825182 0.04284672 -0.008323157 0.024122983
000070 b8 5c 96 3c eb 9c 7c 3d 37 38 b8 bc 01 59 a7 3c
       0.018354759 0.061673086 -0.022487743 0.020428183
000080 d7 8d 4c 3d dc 48 a6 b8 6b 74 1b bd c9 81 31 bd
       0.049939957 -7.929068e-05 -0.03795282 -0.043336663
000090 87 3e 1a bd df 3f 9a 3c 50 54 fc bb d2 2c 4c bd
       -0.037657287 0.018829284 -0.0077004805 -0.04984743
0000a0 c2 2d 19 3d cc 85 0b 3d 88 d3 80 3d d6 19 9c 3d
       0.037397154 0.034063146 0.062903464 0.07622115
0000b0 ad d7 84 3d 39 2d 31 3c 90 4d 78 3d 38 36 3e 3d
       0.064864494 0.010814005 0.060620844 0.046438426
0000c0 49 d4 3d 3d 06 a9 f9 bc b3 a5 46 bd 54 cd 32 bd
       0.04634503 -0.030476104 -0.048497867 -0.043652847
0000d0 9e 30 5d bd 70 97 1c 3d 08 d5 8f 3d aa 5a 59 3d
       -0.054001443 0.03823036 0.07023054 0.05306498
0000e0 2a 53 43 bd 8b 02 e4 3b bc 52 31 3d cd b6 45 3c
       -0.047686733 0.006958311 0.043291792 0.012067509
0000f0 02 d2 02 bd ef 67 74 bd 66 57 24 bc 54 d3 42 bd
       -0.03193856 -0.05966943 -0.010030603 -0.04756482
000100 28 00 3b bd 48 80 1d bd 5d 17 56 bd 18 7d 2f 3d
       -0.045654446 -0.038452417 -0.052268375 0.042843908
000110 14 69 21 bd 89 f1 bf 3c bc a4 18 3d 8b 24 66 3d
       -0.03940685 0.023430603 0.037266478 0.056187194
000120 78 41 50 3d d6 fd d3 bc 2a 0c 47 3d 89 a1 91 3d
       0.050843686 -0.025877874 0.048595585 0.071108885
000130 dd 6e 8e 3d 0b 4c 7e 3d 92 37 0e 3d cd 0b 19 3c
       0.06954739 0.06208424 0.034720965 0.009341192
000140 5a 34 cf bc 2a 6a 60 3b bb 3a b7 3b a7 5f 98 3d
       -0.025293518 0.0034242966 0.005591718 0.07440119
000150 8a 44 8e bc c4 cd 04 bd e9 9e 8a 3d c9 57 b1 3c
       -0.017366666 -0.032422796 0.06768591 0.021648305
000160 48 f5 5a bd 6e 77 22 3d 72 52 54 bc 5f e7 8f 3c
       -0.053456575 0.03966468 -0.01295911 0.017566381
000170 a9 76 db bc 27 76 b0 3c 5d 71 e4 3b fe 61 8b 3d
       -0.02678998 0.021540714 0.006971522 0.068058
000180 cc 61 13 bc 8c cf f1 3c 04 bd b6 3c 7d 67 90 3c
       -0.008995485 0.029517911 0.022306927 0.017627472
000190 dd ee 8f 3c 09 4e 64 3d 92 16 32 bd ee f4 7a 3d
       0.017569954 0.055738483 -0.043478556 0.06126874
0001a0 83 17 5a bd 8e aa 57 bd 45 04 8b 3d 78 9b 60 3d
       -0.05324508 -0.052652888 0.06787924 0.054835767
0001b0 1e d8 41 bc f0 ad 43 bd 2b 28 38 3d e4 53 ff bc
       -0.0118313115 -0.0477733 0.044960182 -0.031167932
0001c0 91 24 1a bd a3 fe 33 3d 45 66 aa bc d8 d4 54 bd
       -0.03763253 0.043944012 -0.020800719 -0.051960796
0001d0 4f 3f 6a bd 31 04 86 3d 8e 6f 23 3d ca 97 9f bc
       -0.057189282 0.06543768 0.03990131 -0.019481558
0001e0 df 14 02 bd 17 dd 03 bd 18 2a 2e 3d 02 12 52 3d
       -0.031758185 -0.03219327 0.042520612 0.051286705
0001f0 ac e2 7c 3d 3b af 1e bc 06 7a 1c 3d a2 56 63 bc
       0.06173961 -0.009685333 0.038202308 -0.013875635
000200 90 6f 5d bd 85 52 60 3d a6 64 ef 3a b4 da 74 3d
       -0.054061472 0.054766197 0.0018264249 0.059778884
000210 f1 43 0b bd 42 13 89 bc e2 c3 c7 3c 96 c6 49 bd
       -0.03400034 -0.016732816 0.024385396 -0.049261652
000220 82 0c 64 3d dc bb f8 3c dc e6 94 bc 49 b7 69 3d
       0.05567599 0.030363016 -0.018176489 0.05705956
000230 e0 ff 86 3d a6 37 09 3d 03 c1 69 3d 7a 51 87 3d
       0.06591773 0.033500336 0.057068836 0.06607337
000240 b0 94 bc bc 34 e0 94 bc 9f 3b 79 3c 59 8a 2c bd
       -0.023020118 -0.018173315 0.015211969 -0.042124126
000250 ff 9b 0d 3d 59 3d e5 bc a0 67 5f 3d 24 ff 92 3c
       0.034572598 -0.027983354 0.054542184 0.017943926
000260 cd 4d ca bc 9c 14 41 bc 1f 29 f0 3c c0 69 4e bd
       -0.024695301 -0.011784699 0.029316483 -0.05039382
000270 9c 2e 35 3c 21 84 8b 3c 2f 10 e7 bc f5 04 11 3d
       0.011058476 0.017030777 -0.02820596 0.035405118
000280 e1 a0 09 3d 25 43 7d bd bc 8c 30 3d 93 db aa bc
       0.03360069 -0.061831612 0.043102965 -0.020856654
000290 66 02 b1 bb 07 5e 45 bd 87 c6 2d bd 99 7f 43 3d
       -0.0054018972 -0.048185375 -0.04242566 0.04772911
0002a0 95 1d 74 3d 25 62 08 bd 39 c5 d3 3c 14 ca 5b bd
       0.059598524 -0.033296723 0.025850879 -0.053659514
0002b0 e7 cf 8e bc 60 a1 ba bc 02 31 48 bd 0e bf f2 bc
       -0.01743312 -0.022782028 -0.048874862 -0.029632118
0002c0 cc 1f 4f 3d 01 3b f9 3c 8a f9 53 3d 66 9b 8e 3d
       0.050567433 0.030423643 0.05175165 0.06963234
0002d0 f9 29 81 3c fa 0f 07 3d e4 82 50 3d 91 7a 78 3d
       0.015767084 0.03297422 0.050906077 0.060663763
0002e0 40 2d 31 bd 34 22 2f bd a5 27 0b bd 4c 08 79 3d
       -0.043256044 -0.042757228 -0.033973355 0.06079893
0002f0 15 85 54 3c b8 0d 18 3d 0b d8 4d 3c 23 23 77 3d
       0.012971182 0.03712246 0.012563716 0.060336243
000300 56 6c 89 3d 53 71 6d bc e7 00 d2 bb 5c 4e a2 bc
       0.067101166 -0.014492351 -0.006408799 -0.019812755
000310 aa ce 1d bc 05 b5 5b 3d 91 77 fc bc 3f 8a 78 3d
       -0.009631792 0.05363943 -0.030818732 0.060678717
000320 9d 63 8a 3d ca ed 98 3c 72 ff d2 bb 71 6d cd 3b
       0.06757281 0.018668074 -0.006439143 0.00626915
000330 e4 61 7d bc 0a c7 9c 3c ca 6f c8 bc 38 ed 01 3d
       -0.0154652335 0.019137878 -0.024467368 0.03172037
000340 c4 a1 5f bd 73 c1 97 3c 13 8a 03 3d 36 2a 19 bd
       -0.05459763 0.018524861 0.0321141 -0.03739377
000350 a8 09 fc bc ce 91 68 3d f4 50 1a bd 53 ab 32 3a
       -0.030766323 0.056779675 -0.03767486 0.00068156904
000360 bd 8d 48 bb 40 ac 06 bb f2 ff 5f 3c bc 9d 52 3b
       -0.003060206 -0.0020549446 0.013671862 0.0032137474
000370 21 29 37 bc 5d d7 33 3d ef 9e 39 bd 10 51 9d bb
       -0.0111792395 0.04390656 -0.045317587 -0.004800923
000380 4e 32 61 3d 06 06 1f 3d be 67 46 3c e1 1a 4b 3b
       0.054979615 0.038824104 0.012109695 0.0030991363
000390 12 91 8c 3d 56 1f 70 bc 3d b1 31 3d 75 6e 70 bd
       0.068636075 -0.014655909 0.04338192 -0.05869909
0003a0 62 31 47 bb 31 c5 13 bd 63 88 10 bd 38 de ac 3d
       -0.0030394425 -0.03607673 -0.03528632 0.08440822
0003b0 7f 34 80 3a da 72 a1 3c a0 ee 40 3c d6 82 eb bb
       0.000978127 0.019708086 0.011775643 -0.0071872277
0003c0 ef ab 33 3d 67 28 65 bc 30 57 1d 3c 5b 23 34 bd
       0.04386514 -0.013986683 0.009603307 -0.04397903
0003d0 16 a7 93 3d 26 5d 12 bd 86 cc dc bc 95 5a 3b 3d
       0.072096035 -0.035733365 -0.026952993 0.045740683
0003e0 6b 89 d1 3c ed 87 e2 3c 2b 01 7e 3d f5 ae 06 3d
       0.025578221 0.027652705 0.062012833 0.032881696
0003f0 af 2c 59 ba ed 82 09 3b e4 ef 0c bd 7b 8b 83 3d
       -0.00082845514 0.002098258 -0.034408465 0.06423088

q_net.2.bias f4 [128]
000000 42 af e4 bc 97 44 69 3d 24 0d 1f bd 56 4c 7e 3d
       -0.0279156 0.056950178 -0.03883089 0.06208452
000010 bc 16 37 bd c7 fe 3a bd 2e e8 6a bd e5 4d 93 3d
       -0.044699416 -0.04565313 -0.05735033 0.071925916
000020 d8 c3 a2 bc 1e 03 66 bd a2 b2 c2 bc 97 fe f4 3a
       -0.019868776 -0.056155317 -0.02376682 0.0018691596
000030 83 1d 62 bc ed f9 1c bd 86 c5 56 bd 6a 2c 67 3c
       -0.013800981 -0.038324285 -0.052434467 0.01410971
000040 fa b3 bb bc 46 f5 d2 bb 88 d6 d9 3b f5 49 2a bd
       -0.022912968 -0.0064379303 0.0066478886 -0.041574437
000050 80 c9 e2 3c bd 99 da 39 80 b6 3f 3d 72 51 fa 3c
       0.027683973 0.00041694744 0.046804905 0.030556414
000060 9f 9c 85 bd e7 dc 10 bd f4 a3 61 bc 8e ae 0d bd
       -0.06524014 -0.03536692 -0.013772 -0.034590296
000070 aa 29 ee 3c 4d 03 b4 bc 28 0a ed 3b 47 f4 ae 3d
       0.029072601 -0.02197423 0.0072338767 0.08542686
000080 ad e3 7f bd a0 ea 02 bd 61 cf 33 3d 3d 70 bb 3c
       -0.062472988 -0.031962037 0.043898944 0.022880668
000090 2f 39 23 bd f4 6b 94 3c 41 2c b5 3c 0e aa 9d bc
       -0.039849456 0.018117882 0.022115828 -0.019246127
0000a0 59 5a 88 3c da 5e d3 ba 9f 37 3c 3d 5c d4 15 bc
       0.016644644 -0.001612629 0.045951482 -0.009144869
0000b0 6e 8d 74 bb fb 58 98 3c 1b be c9 bc 00 a7 62 bc
       -0.0037315744 0.018597117 -0.024626782 -0.013833761
0000c0 b4 a9 0a 3d 76 00 de 3c 97 5b 8f bc d6 9b 28 bd
       0.033853248 0.02709983 -0.017499728 -0.04116424
0000d0 30 5b 43 3d 02 4e f8 3c 94 61 18 bd 41 85 81 3c
       0.047694385 0.030310635 -0.037202433 0.01581061
0000e0 81 03 0f 3d 72 25 4f bd 73 ed 74 bc 16 bb 4d 3d
       0.03491545 -0.05057282 -0.01494919 0.050227247
0000f0 8d bf 1a 3c d9 09 08 bd 94 93 74 bc e2 e9 45 3d
       0.009445083 -0.033212516 -0.0149277635 0.04831875
000100 f9 d2 6d bd b7 14 87 bd 3a 1f 03 3d 90 aa 40 3c
       -0.058062527 -0.06595748 0.0320122 0.011759415
000110 72 4f 58 ba 33 f0 12 3b 32 5d 10 3d 2b 4f 48 bd
       -0.00082515844 0.0022421002 0.035245128 -0.048903625
000120 19 55 e0 bc be 02 31 bd 15 44 21 bd 28 91 55 3d
       -0.027384328 -0.043215506 -0.03937157 0.052140385
000130 d8 fd 79 bb b2 97 83 3c de 3f d9 3c 7b 35 a6 bb
       -0.0038145687 0.016063545 0.026519712 -0.0050722933
000140 25 f9 12 3b 86 eb 09 bd 93 b6 18 bd 7c 6d 50 bc
       0.0022426334 -0.03367188 -0.03728349 -0.012721416
000150 43 53 e1 bb 0d ad 08 bd 3f f1 79 3d 9c 91 00 bd
       -0.0068763806 -0.03336816 0.061021086 -0.031388864
000160 8e e1 74 bd 33 a5 de bc 65 c2 21 bd ca 23 35 3c
       -0.05978542 -0.027178383 -0.03949203 0.011055896
000170 25 e6 ea 3b a6 15 e3 3b 2f 73 16 bd d5 64 7c bd
       0.0071685486 0.006930071 -0.03673094 -0.0616196
000180 d2 70 d6 3c 56 5c 81 bd 4f d4 54 bd ea 20 68 bc
       0.026176844 -0.0631644 -0.051960286 -0.014168004
000190 d5 e9 84 bd b5 fa 80 3b ae d6 7a 3d 73 16 d7 bc
       -0.064899124 0.0039361366 0.06123989 -0.026255822
0001a0 8f 2d 03 bc f4 19 a8 3c d6 40 1a bc f2 6c 84 bd
       -0.0080064675 0.020520188 -0.009414872 -0.06466092
0001b0 78 2e 41 3d 0a 58 01 bd 67 d6 14 bd 39 8c cf 3c
       0.047163457 -0.0315781 -0.036337283 0.025335418
0001c0 8c 3a 66 bd 6f 44 67 bd ae 37 0c 3d 8b f6 a1 bc
       -0.05620818 -0.056461748 0.034232788 -0.019770881
0001d0 07 cf e5 3c 96 eb aa bc 52 52 48 3d 24 81 0a bd
       0.02805282 -0.02086429 0.04890663 -0.033814564
0001e0 76 c5 4d bd 74 24 a0 3b c8 0f 0e bc cf ea 04 3d
       -0.05023714 0.004887158 -0.008670755 0.032450493
0001f0 b0 3b ae bc f1 53 01 3c 51 ec 0c 3d 4f fc 94 3d
       -0.021268696 0.007893548 0.034405056 0.072746865

q_net.4.weight f4 [1, 128]
000000 44 7f 39 3d 14 c9 0d 3d 0a 5b b3 bc 1c c4 0d 3d
       0.045287386 0.03461559 -0.021893997 0.034610853
000010 47 b2 9d 3d 0a b5 19 3d f6 d6 2f bb 8e 8d b1 3d
       0.07700019 0.037526168 -0.0026831008 0.086695775
000020 54 25 e6 3b f1 2d 46 bc ab 1a cb 3d e0 40 3a bd
       0.007023493 -0.012095914 0.09917196 -0.045472026
000030 e9 14 e9 bc f5 80 c7 3c 45 82 36 3d 08 08 06 bc
       -0.028452354 0.024353484 0.04455783 -0.008180626
000040 68 6b 28 bd fa 33 9e 3d f5 e5 ad 3d 60 67 8f bc
       -0.041118056 0.077247575 0.084911264 -0.017505348
000050 6f e6 24 3d f5 b3 ab bd 8c 1b 4e bd 14 60 11 bc
       0.04025882 -0.083839335 -0.05031924 -0.0088730045
000060 a1 dd d9 bb ce f8 3d bd b4 70 c7 3a dc 2b d5 ba
       -0.0066487347 -0.046379857 0.0015216083 -0.0016263681
000070 30 28 85 bd 5d b2 89 3d c5 bb be bc 42 2c 15 3d
       -0.06501806 0.06723473 -0.023282895 0.03641916
000080 37 32 a3 3b 00 7a bb ba c7 97 c2 3d c8 36 11 3c
       0.0049803513 -0.0014303327 0.095016055 0.0088631585
000090 98 9e 4e 3d 3c 03 8b bd 7e 32 2b bd 60 b6 92 bd
       0.050444216 -0.06787726 -0.0417962 -0.071636915
0000a0 a1 a8 5d 3d 18 04 ad bd 73 a0 a6 bc d1 4d 58 bd
       0.054115895 -0.084480464 -0.02034018 -0.052808587
0000b0 2b 57 73 bd a7 6d 77 3d 4e 0a 6b bd cb b0 49 3d
       -0.0594093 0.060407307 -0.057382874 0.04924087
0000c0 54 7c 1d 3c c2 d6 a3 3d ba 8a 9f bc 4a 2b 6f bd
       0.009612162 0.07999946 -0.01947533 -0.058390893
0000d0 ef c7 a9 3d 7f fc 7d 3b 27 aa a1 3c c6 1e bf bd
       0.082900874 0.0038755236 0.019734455 -0.093320414
0000e0 34 5b 49 bd 67 22 a9 bd d6 6e 12 bd b6 0c 4d bd
       -0.049159244 -0.08258515 -0.035750233 -0.05006095
0000f0 74 85 2a bd 3b 70 d6 bc fb cd d2 bc ce 52 5a 3d
       -0.041631177 -0.026176563 -0.025732985 0.053301625
000100 4f 52 a2 3b f1 c8 c2 bc b4 f7 9e 3d f3 2d 2e bd
       0.0049536596 -0.023777457 0.07762089 -0.04252429
000110 fd 01 c6 bc 0f 3c ca bc 03 42 b6 3c 39 69 04 3c
       -0.02417087 -0.024686841 0.022248274 0.008081728
000120 3a 3a 0d bb 49 d6 4e 3d 52 89 41 3c fb de a8 bd
       -0.0021549598 0.050497327 0.011812525 -0.08245655
000130 47 f4 c2 3d 07 f9 e4 bb 2d 7e d0 3d 71 ee 25 3d
       0.095192485 -0.006987694 0.10180316 0.0405106
000140 93 3a 12 3d 52 f5 45 bd 72 74 22 3c bc 0a b2 bc
       0.035700392 -0.04832966 0.009915458 -0.021733634
000150 f4 5a a4 bd b5 82 10 3d 9e d6 07 3d 38 98 f0 bc
       -0.080251604 0.035280902 0.03316366 -0.029369459
000160 5a c8 3a bb cd e3 27 bd ac de 52 bd 6c 5f 24 bd
       -0.0028500766 -0.040988732 -0.051481888 -0.040130064
000170 54 44 39 bd 33 f4 02 3d 3b ae 27 3c 43 0f 73 bd
       -0.04523118 0.031971168 0.010234411 -0.059340727
000180 27 45 6e bd a0 10 90 bd 3f d4 2c bc b0 18 25 3c
       -0.058171418 -0.07034421 -0.01054865 0.010076687
000190 49 c2 da 3a 14 c0 27 3b aa ba 56 3c 75 7c 87 3d
       0.0016689982 0.0025596665 0.013106028 0.06615535
0001a0 d9 de c6 bb 58 9e 33 3c 9c 20 31 3d 69 9b 9d bd
       -0.006069046 0.010963045 0.04324399 -0.07695658
0001b0 ea f2 b2 bd 90 d6 d8 3c 6b 10 32 bd 33 19 6c 3c
       -0.087377384 0.026469499 -0.04347269 0.014410305
0001c0 79 de c2 3c fa 11 a1 bd 53 8d 91 bd 9a fd 25 3d
       0.023787724 -0.07864757 -0.071070336 0.040525056
0001d0 20 49 ac 3d 23 9e b0 bd b0 a3 1d bd 1b 5e f5 3c
       0.08412385 -0.08623912 -0.038486183 0.0299521
0001e0 50 4d 08 3b 20 3b 7f bd b3 16 92 bc ae 29 5d b7
       0.0020798035 -0.062312245 -0.01783309 -1.3182331e-05
0001f0 c3 b3 6a bb d4 08 51 bd 6a 50 a2 bc 6e e2 7a 3d
       -0.0035812713 -0.05103381 -0.019813735 0.061251096
